{"format": "layers-model", "generatedBy": "keras v2.8.0", "convertedBy": "TensorFlow.js Converter v3.18.0", "modelTopology": {"keras_version": "2.8.0", "backend": "tensorflow", "model_config": {"class_name": "Model", "config": {"name": "v5_1_Custom-multiInputs", "layers": [{"class_name": "InputLayer", "config": {"batch_input_shape": [null, 500], "dtype": "float32", "sparse": false, "ragged": false, "name": "input_10"}, "name": "input_10", "inbound_nodes": []}, {"class_name": "Reshape", "config": {"name": "reshape_13", "trainable": true, "batch_input_shape": [null, 500], "dtype": "float32", "target_shape": [500, 1]}, "name": "reshape_13", "inbound_nodes": [[["input_10", 0, 0, {}]]]}, {"class_name": "TensorFlowOpLayer", "config": {"name": "strided_slice_16", "trainable": true, "dtype": "float32", "node_def": {"name": "strided_slice_16", "op": "StridedSlice", "input": ["reshape_13/Reshape", "strided_slice_16/begin", "strided_slice_16/end", "strided_slice_16/strides"], "attr": {"new_axis_mask": {"i": "0"}, "Index": {"type": "DT_INT32"}, "ellipsis_mask": {"i": "0"}, "begin_mask": {"i": "5"}, "end_mask": {"i": "5"}, "T": {"type": "DT_FLOAT"}, "shrink_axis_mask": {"i": "0"}}}, "constants": {"1": [0, 35, 0], "2": [0, 43, 0], "3": [1, 1, 1]}}, "name": "tf_op_layer_strided_slice_16", "inbound_nodes": [[["reshape_13", 0, 0, {}]]]}, {"class_name": "TensorFlowOpLayer", "config": {"name": "strided_slice_18", "trainable": true, "dtype": "float32", "node_def": {"name": "strided_slice_18", "op": "StridedSlice", "input": ["reshape_13/Reshape", "strided_slice_18/begin", "strided_slice_18/end", "strided_slice_18/strides"], "attr": {"ellipsis_mask": {"i": "0"}, "new_axis_mask": {"i": "0"}, "end_mask": {"i": "5"}, "begin_mask": {"i": "5"}, "shrink_axis_mask": {"i": "0"}, "Index": {"type": "DT_INT32"}, "T": {"type": "DT_FLOAT"}}}, "constants": {"1": [0, 67, 0], "2": [0, 75, 0], "3": [1, 1, 1]}}, "name": "tf_op_layer_strided_slice_18", "inbound_nodes": [[["reshape_13", 0, 0, {}]]]}, {"class_name": "TensorFlowOpLayer", "config": {"name": "strided_slice_17", "trainable": true, "dtype": "float32", "node_def": {"name": "strided_slice_17", "op": "StridedSlice", "input": ["reshape_13/Reshape", "strided_slice_17/begin", "strided_slice_17/end", "strided_slice_17/strides"], "attr": {"ellipsis_mask": {"i": "0"}, "shrink_axis_mask": {"i": "0"}, "T": {"type": "DT_FLOAT"}, "Index": {"type": "DT_INT32"}, "begin_mask": {"i": "5"}, "new_axis_mask": {"i": "0"}, "end_mask": {"i": "5"}}}, "constants": {"1": [0, 33, 0], "2": [0, 41, 0], "3": [1, 1, 1]}}, "name": "tf_op_layer_strided_slice_17", "inbound_nodes": [[["reshape_13", 0, 0, {}]]]}, {"class_name": "TensorFlowOpLayer", "config": {"name": "strided_slice_19", "trainable": true, "dtype": "float32", "node_def": {"name": "strided_slice_19", "op": "StridedSlice", "input": ["reshape_13/Reshape", "strided_slice_19/begin", "strided_slice_19/end", "strided_slice_19/strides"], "attr": {"end_mask": {"i": "5"}, "T": {"type": "DT_FLOAT"}, "Index": {"type": "DT_INT32"}, "shrink_axis_mask": {"i": "0"}, "new_axis_mask": {"i": "0"}, "ellipsis_mask": {"i": "0"}, "begin_mask": {"i": "5"}}}, "constants": {"1": [0, 49, 0], "2": [0, 57, 0], "3": [1, 1, 1]}}, "name": "tf_op_layer_strided_slice_19", "inbound_nodes": [[["reshape_13", 0, 0, {}]]]}, {"class_name": "TensorFlowOpLayer", "config": {"name": "mean_16", "trainable": true, "dtype": "float32", "node_def": {"name": "mean_16", "op": "Mean", "input": ["strided_slice_16", "mean_16/reduction_indices"], "attr": {"T": {"type": "DT_FLOAT"}, "keep_dims": {"b": true}, "Tidx": {"type": "DT_INT32"}}}, "constants": {"1": [1]}}, "name": "tf_op_layer_mean_16", "inbound_nodes": [[["tf_op_layer_strided_slice_16", 0, 0, {}]]]}, {"class_name": "TensorFlowOpLayer", "config": {"name": "mean_18", "trainable": true, "dtype": "float32", "node_def": {"name": "mean_18", "op": "Mean", "input": ["strided_slice_18", "mean_18/reduction_indices"], "attr": {"keep_dims": {"b": true}, "Tidx": {"type": "DT_INT32"}, "T": {"type": "DT_FLOAT"}}}, "constants": {"1": [1]}}, "name": "tf_op_layer_mean_18", "inbound_nodes": [[["tf_op_layer_strided_slice_18", 0, 0, {}]]]}, {"class_name": "TensorFlowOpLayer", "config": {"name": "mean_17", "trainable": true, "dtype": "float32", "node_def": {"name": "mean_17", "op": "Mean", "input": ["strided_slice_17", "mean_17/reduction_indices"], "attr": {"T": {"type": "DT_FLOAT"}, "Tidx": {"type": "DT_INT32"}, "keep_dims": {"b": true}}}, "constants": {"1": [1]}}, "name": "tf_op_layer_mean_17", "inbound_nodes": [[["tf_op_layer_strided_slice_17", 0, 0, {}]]]}, {"class_name": "TensorFlowOpLayer", "config": {"name": "mean_19", "trainable": true, "dtype": "float32", "node_def": {"name": "mean_19", "op": "Mean", "input": ["strided_slice_19", "mean_19/reduction_indices"], "attr": {"keep_dims": {"b": true}, "Tidx": {"type": "DT_INT32"}, "T": {"type": "DT_FLOAT"}}}, "constants": {"1": [1]}}, "name": "tf_op_layer_mean_19", "inbound_nodes": [[["tf_op_layer_strided_slice_19", 0, 0, {}]]]}, {"class_name": "TensorFlowOpLayer", "config": {"name": "StopGradient_16", "trainable": true, "dtype": "float32", "node_def": {"name": "StopGradient_16", "op": "StopGradient", "input": ["mean_16"], "attr": {"T": {"type": "DT_FLOAT"}}}, "constants": {}}, "name": "tf_op_layer_StopGradient_16", "inbound_nodes": [[["tf_op_layer_mean_16", 0, 0, {}]]]}, {"class_name": "TensorFlowOpLayer", "config": {"name": "StopGradient_18", "trainable": true, "dtype": "float32", "node_def": {"name": "StopGradient_18", "op": "StopGradient", "input": ["mean_18"], "attr": {"T": {"type": "DT_FLOAT"}}}, "constants": {}}, "name": "tf_op_layer_StopGradient_18", "inbound_nodes": [[["tf_op_layer_mean_18", 0, 0, {}]]]}, {"class_name": "TensorFlowOpLayer", "config": {"name": "StopGradient_17", "trainable": true, "dtype": "float32", "node_def": {"name": "StopGradient_17", "op": "StopGradient", "input": ["mean_17"], "attr": {"T": {"type": "DT_FLOAT"}}}, "constants": {}}, "name": "tf_op_layer_StopGradient_17", "inbound_nodes": [[["tf_op_layer_mean_17", 0, 0, {}]]]}, {"class_name": "TensorFlowOpLayer", "config": {"name": "StopGradient_19", "trainable": true, "dtype": "float32", "node_def": {"name": "StopGradient_19", "op": "StopGradient", "input": ["mean_19"], "attr": {"T": {"type": "DT_FLOAT"}}}, "constants": {}}, "name": "tf_op_layer_StopGradient_19", "inbound_nodes": [[["tf_op_layer_mean_19", 0, 0, {}]]]}, {"class_name": "TensorFlowOpLayer", "config": {"name": "SquaredDifference_16", "trainable": true, "dtype": "float32", "node_def": {"name": "SquaredDifference_16", "op": "SquaredDifference", "input": ["strided_slice_16", "StopGradient_16"], "attr": {"T": {"type": "DT_FLOAT"}}}, "constants": {}}, "name": "tf_op_layer_SquaredDifference_16", "inbound_nodes": [[["tf_op_layer_strided_slice_16", 0, 0, {}], ["tf_op_layer_StopGradient_16", 0, 0, {}]]]}, {"class_name": "TensorFlowOpLayer", "config": {"name": "SquaredDifference_18", "trainable": true, "dtype": "float32", "node_def": {"name": "SquaredDifference_18", "op": "SquaredDifference", "input": ["strided_slice_18", "StopGradient_18"], "attr": {"T": {"type": "DT_FLOAT"}}}, "constants": {}}, "name": "tf_op_layer_SquaredDifference_18", "inbound_nodes": [[["tf_op_layer_strided_slice_18", 0, 0, {}], ["tf_op_layer_StopGradient_18", 0, 0, {}]]]}, {"class_name": "TensorFlowOpLayer", "config": {"name": "SquaredDifference_17", "trainable": true, "dtype": "float32", "node_def": {"name": "SquaredDifference_17", "op": "SquaredDifference", "input": ["strided_slice_17", "StopGradient_17"], "attr": {"T": {"type": "DT_FLOAT"}}}, "constants": {}}, "name": "tf_op_layer_SquaredDifference_17", "inbound_nodes": [[["tf_op_layer_strided_slice_17", 0, 0, {}], ["tf_op_layer_StopGradient_17", 0, 0, {}]]]}, {"class_name": "TensorFlowOpLayer", "config": {"name": "SquaredDifference_19", "trainable": true, "dtype": "float32", "node_def": {"name": "SquaredDifference_19", "op": "SquaredDifference", "input": ["strided_slice_19", "StopGradient_19"], "attr": {"T": {"type": "DT_FLOAT"}}}, "constants": {}}, "name": "tf_op_layer_SquaredDifference_19", "inbound_nodes": [[["tf_op_layer_strided_slice_19", 0, 0, {}], ["tf_op_layer_StopGradient_19", 0, 0, {}]]]}, {"class_name": "TensorFlowOpLayer", "config": {"name": "variance_16", "trainable": true, "dtype": "float32", "node_def": {"name": "variance_16", "op": "Mean", "input": ["SquaredDifference_16", "variance_16/reduction_indices"], "attr": {"T": {"type": "DT_FLOAT"}, "keep_dims": {"b": true}, "Tidx": {"type": "DT_INT32"}}}, "constants": {"1": [1]}}, "name": "tf_op_layer_variance_16", "inbound_nodes": [[["tf_op_layer_SquaredDifference_16", 0, 0, {}]]]}, {"class_name": "TensorFlowOpLayer", "config": {"name": "variance_18", "trainable": true, "dtype": "float32", "node_def": {"name": "variance_18", "op": "Mean", "input": ["SquaredDifference_18", "variance_18/reduction_indices"], "attr": {"Tidx": {"type": "DT_INT32"}, "keep_dims": {"b": true}, "T": {"type": "DT_FLOAT"}}}, "constants": {"1": [1]}}, "name": "tf_op_layer_variance_18", "inbound_nodes": [[["tf_op_layer_SquaredDifference_18", 0, 0, {}]]]}, {"class_name": "TensorFlowOpLayer", "config": {"name": "variance_17", "trainable": true, "dtype": "float32", "node_def": {"name": "variance_17", "op": "Mean", "input": ["SquaredDifference_17", "variance_17/reduction_indices"], "attr": {"keep_dims": {"b": true}, "T": {"type": "DT_FLOAT"}, "Tidx": {"type": "DT_INT32"}}}, "constants": {"1": [1]}}, "name": "tf_op_layer_variance_17", "inbound_nodes": [[["tf_op_layer_SquaredDifference_17", 0, 0, {}]]]}, {"class_name": "TensorFlowOpLayer", "config": {"name": "variance_19", "trainable": true, "dtype": "float32", "node_def": {"name": "variance_19", "op": "Mean", "input": ["SquaredDifference_19", "variance_19/reduction_indices"], "attr": {"T": {"type": "DT_FLOAT"}, "keep_dims": {"b": true}, "Tidx": {"type": "DT_INT32"}}}, "constants": {"1": [1]}}, "name": "tf_op_layer_variance_19", "inbound_nodes": [[["tf_op_layer_SquaredDifference_19", 0, 0, {}]]]}, {"class_name": "TensorFlowOpLayer", "config": {"name": "Squeeze_33", "trainable": true, "dtype": "float32", "node_def": {"name": "Squeeze_33", "op": "Squeeze", "input": ["variance_16"], "attr": {"T": {"type": "DT_FLOAT"}, "squeeze_dims": {"list": {"i": ["1"]}}}}, "constants": {}}, "name": "tf_op_layer_Squeeze_33", "inbound_nodes": [[["tf_op_layer_variance_16", 0, 0, {}]]]}, {"class_name": "TensorFlowOpLayer", "config": {"name": "Squeeze_32", "trainable": true, "dtype": "float32", "node_def": {"name": "Squeeze_32", "op": "Squeeze", "input": ["mean_16"], "attr": {"T": {"type": "DT_FLOAT"}, "squeeze_dims": {"list": {"i": ["1"]}}}}, "constants": {}}, "name": "tf_op_layer_Squeeze_32", "inbound_nodes": [[["tf_op_layer_mean_16", 0, 0, {}]]]}, {"class_name": "TensorFlowOpLayer", "config": {"name": "Squeeze_37", "trainable": true, "dtype": "float32", "node_def": {"name": "Squeeze_37", "op": "Squeeze", "input": ["variance_18"], "attr": {"T": {"type": "DT_FLOAT"}, "squeeze_dims": {"list": {"i": ["1"]}}}}, "constants": {}}, "name": "tf_op_layer_Squeeze_37", "inbound_nodes": [[["tf_op_layer_variance_18", 0, 0, {}]]]}, {"class_name": "TensorFlowOpLayer", "config": {"name": "Squeeze_36", "trainable": true, "dtype": "float32", "node_def": {"name": "Squeeze_36", "op": "Squeeze", "input": ["mean_18"], "attr": {"T": {"type": "DT_FLOAT"}, "squeeze_dims": {"list": {"i": ["1"]}}}}, "constants": {}}, "name": "tf_op_layer_Squeeze_36", "inbound_nodes": [[["tf_op_layer_mean_18", 0, 0, {}]]]}, {"class_name": "TensorFlowOpLayer", "config": {"name": "Squeeze_35", "trainable": true, "dtype": "float32", "node_def": {"name": "Squeeze_35", "op": "Squeeze", "input": ["variance_17"], "attr": {"squeeze_dims": {"list": {"i": ["1"]}}, "T": {"type": "DT_FLOAT"}}}, "constants": {}}, "name": "tf_op_layer_Squeeze_35", "inbound_nodes": [[["tf_op_layer_variance_17", 0, 0, {}]]]}, {"class_name": "TensorFlowOpLayer", "config": {"name": "Squeeze_34", "trainable": true, "dtype": "float32", "node_def": {"name": "Squeeze_34", "op": "Squeeze", "input": ["mean_17"], "attr": {"squeeze_dims": {"list": {"i": ["1"]}}, "T": {"type": "DT_FLOAT"}}}, "constants": {}}, "name": "tf_op_layer_Squeeze_34", "inbound_nodes": [[["tf_op_layer_mean_17", 0, 0, {}]]]}, {"class_name": "TensorFlowOpLayer", "config": {"name": "Squeeze_39", "trainable": true, "dtype": "float32", "node_def": {"name": "Squeeze_39", "op": "Squeeze", "input": ["variance_19"], "attr": {"squeeze_dims": {"list": {"i": ["1"]}}, "T": {"type": "DT_FLOAT"}}}, "constants": {}}, "name": "tf_op_layer_Squeeze_39", "inbound_nodes": [[["tf_op_layer_variance_19", 0, 0, {}]]]}, {"class_name": "TensorFlowOpLayer", "config": {"name": "Squeeze_38", "trainable": true, "dtype": "float32", "node_def": {"name": "Squeeze_38", "op": "Squeeze", "input": ["mean_19"], "attr": {"squeeze_dims": {"list": {"i": ["1"]}}, "T": {"type": "DT_FLOAT"}}}, "constants": {}}, "name": "tf_op_layer_Squeeze_38", "inbound_nodes": [[["tf_op_layer_mean_19", 0, 0, {}]]]}, {"class_name": "TensorFlowOpLayer", "config": {"name": "Reshape_32", "trainable": true, "dtype": "float32", "node_def": {"name": "Reshape_32", "op": "Reshape", "input": ["Squeeze_33", "Reshape_32/shape"], "attr": {"T": {"type": "DT_FLOAT"}, "Tshape": {"type": "DT_INT32"}}}, "constants": {"1": [-1, 1, 1]}}, "name": "tf_op_layer_Reshape_32", "inbound_nodes": [[["tf_op_layer_Squeeze_33", 0, 0, {}]]]}, {"class_name": "TensorFlowOpLayer", "config": {"name": "Reshape_33", "trainable": true, "dtype": "float32", "node_def": {"name": "Reshape_33", "op": "Reshape", "input": ["Squeeze_32", "Reshape_33/shape"], "attr": {"T": {"type": "DT_FLOAT"}, "Tshape": {"type": "DT_INT32"}}}, "constants": {"1": [-1, 1, 1]}}, "name": "tf_op_layer_Reshape_33", "inbound_nodes": [[["tf_op_layer_Squeeze_32", 0, 0, {}]]]}, {"class_name": "TensorFlowOpLayer", "config": {"name": "Reshape_36", "trainable": true, "dtype": "float32", "node_def": {"name": "Reshape_36", "op": "Reshape", "input": ["Squeeze_37", "Reshape_36/shape"], "attr": {"T": {"type": "DT_FLOAT"}, "Tshape": {"type": "DT_INT32"}}}, "constants": {"1": [-1, 1, 1]}}, "name": "tf_op_layer_Reshape_36", "inbound_nodes": [[["tf_op_layer_Squeeze_37", 0, 0, {}]]]}, {"class_name": "TensorFlowOpLayer", "config": {"name": "Reshape_37", "trainable": true, "dtype": "float32", "node_def": {"name": "Reshape_37", "op": "Reshape", "input": ["Squeeze_36", "Reshape_37/shape"], "attr": {"T": {"type": "DT_FLOAT"}, "Tshape": {"type": "DT_INT32"}}}, "constants": {"1": [-1, 1, 1]}}, "name": "tf_op_layer_Reshape_37", "inbound_nodes": [[["tf_op_layer_Squeeze_36", 0, 0, {}]]]}, {"class_name": "TensorFlowOpLayer", "config": {"name": "Reshape_34", "trainable": true, "dtype": "float32", "node_def": {"name": "Reshape_34", "op": "Reshape", "input": ["Squeeze_35", "Reshape_34/shape"], "attr": {"T": {"type": "DT_FLOAT"}, "Tshape": {"type": "DT_INT32"}}}, "constants": {"1": [-1, 1, 1]}}, "name": "tf_op_layer_Reshape_34", "inbound_nodes": [[["tf_op_layer_Squeeze_35", 0, 0, {}]]]}, {"class_name": "TensorFlowOpLayer", "config": {"name": "Reshape_35", "trainable": true, "dtype": "float32", "node_def": {"name": "Reshape_35", "op": "Reshape", "input": ["Squeeze_34", "Reshape_35/shape"], "attr": {"Tshape": {"type": "DT_INT32"}, "T": {"type": "DT_FLOAT"}}}, "constants": {"1": [-1, 1, 1]}}, "name": "tf_op_layer_Reshape_35", "inbound_nodes": [[["tf_op_layer_Squeeze_34", 0, 0, {}]]]}, {"class_name": "TensorFlowOpLayer", "config": {"name": "Reshape_38", "trainable": true, "dtype": "float32", "node_def": {"name": "Reshape_38", "op": "Reshape", "input": ["Squeeze_39", "Reshape_38/shape"], "attr": {"Tshape": {"type": "DT_INT32"}, "T": {"type": "DT_FLOAT"}}}, "constants": {"1": [-1, 1, 1]}}, "name": "tf_op_layer_Reshape_38", "inbound_nodes": [[["tf_op_layer_Squeeze_39", 0, 0, {}]]]}, {"class_name": "TensorFlowOpLayer", "config": {"name": "Reshape_39", "trainable": true, "dtype": "float32", "node_def": {"name": "Reshape_39", "op": "Reshape", "input": ["Squeeze_38", "Reshape_39/shape"], "attr": {"Tshape": {"type": "DT_INT32"}, "T": {"type": "DT_FLOAT"}}}, "constants": {"1": [-1, 1, 1]}}, "name": "tf_op_layer_Reshape_39", "inbound_nodes": [[["tf_op_layer_Squeeze_38", 0, 0, {}]]]}, {"class_name": "TensorFlowOpLayer", "config": {"name": "Sub_16", "trainable": true, "dtype": "float32", "node_def": {"name": "Sub_16", "op": "Sub", "input": ["strided_slice_16", "Reshape_32"], "attr": {"T": {"type": "DT_FLOAT"}}}, "constants": {}}, "name": "tf_op_layer_Sub_16", "inbound_nodes": [[["tf_op_layer_strided_slice_16", 0, 0, {}], ["tf_op_layer_Reshape_32", 0, 0, {}]]]}, {"class_name": "TensorFlowOpLayer", "config": {"name": "AddV2_16", "trainable": true, "dtype": "float32", "node_def": {"name": "AddV2_16", "op": "AddV2", "input": ["Reshape_33", "AddV2_16/y"], "attr": {"T": {"type": "DT_FLOAT"}}}, "constants": {"1": 1.0}}, "name": "tf_op_layer_AddV2_16", "inbound_nodes": [[["tf_op_layer_Reshape_33", 0, 0, {}]]]}, {"class_name": "TensorFlowOpLayer", "config": {"name": "Sub_18", "trainable": true, "dtype": "float32", "node_def": {"name": "Sub_18", "op": "Sub", "input": ["strided_slice_18", "Reshape_36"], "attr": {"T": {"type": "DT_FLOAT"}}}, "constants": {}}, "name": "tf_op_layer_Sub_18", "inbound_nodes": [[["tf_op_layer_strided_slice_18", 0, 0, {}], ["tf_op_layer_Reshape_36", 0, 0, {}]]]}, {"class_name": "TensorFlowOpLayer", "config": {"name": "AddV2_18", "trainable": true, "dtype": "float32", "node_def": {"name": "AddV2_18", "op": "AddV2", "input": ["Reshape_37", "AddV2_18/y"], "attr": {"T": {"type": "DT_FLOAT"}}}, "constants": {"1": 1.0}}, "name": "tf_op_layer_AddV2_18", "inbound_nodes": [[["tf_op_layer_Reshape_37", 0, 0, {}]]]}, {"class_name": "TensorFlowOpLayer", "config": {"name": "Sub_17", "trainable": true, "dtype": "float32", "node_def": {"name": "Sub_17", "op": "Sub", "input": ["strided_slice_17", "Reshape_34"], "attr": {"T": {"type": "DT_FLOAT"}}}, "constants": {}}, "name": "tf_op_layer_Sub_17", "inbound_nodes": [[["tf_op_layer_strided_slice_17", 0, 0, {}], ["tf_op_layer_Reshape_34", 0, 0, {}]]]}, {"class_name": "TensorFlowOpLayer", "config": {"name": "AddV2_17", "trainable": true, "dtype": "float32", "node_def": {"name": "AddV2_17", "op": "AddV2", "input": ["Reshape_35", "AddV2_17/y"], "attr": {"T": {"type": "DT_FLOAT"}}}, "constants": {"1": 1.0}}, "name": "tf_op_layer_AddV2_17", "inbound_nodes": [[["tf_op_layer_Reshape_35", 0, 0, {}]]]}, {"class_name": "TensorFlowOpLayer", "config": {"name": "Sub_19", "trainable": true, "dtype": "float32", "node_def": {"name": "Sub_19", "op": "Sub", "input": ["strided_slice_19", "Reshape_38"], "attr": {"T": {"type": "DT_FLOAT"}}}, "constants": {}}, "name": "tf_op_layer_Sub_19", "inbound_nodes": [[["tf_op_layer_strided_slice_19", 0, 0, {}], ["tf_op_layer_Reshape_38", 0, 0, {}]]]}, {"class_name": "TensorFlowOpLayer", "config": {"name": "AddV2_19", "trainable": true, "dtype": "float32", "node_def": {"name": "AddV2_19", "op": "AddV2", "input": ["Reshape_39", "AddV2_19/y"], "attr": {"T": {"type": "DT_FLOAT"}}}, "constants": {"1": 1.0}}, "name": "tf_op_layer_AddV2_19", "inbound_nodes": [[["tf_op_layer_Reshape_39", 0, 0, {}]]]}, {"class_name": "TensorFlowOpLayer", "config": {"name": "RealDiv_16", "trainable": true, "dtype": "float32", "node_def": {"name": "RealDiv_16", "op": "RealDiv", "input": ["Sub_16", "AddV2_16"], "attr": {"T": {"type": "DT_FLOAT"}}}, "constants": {}}, "name": "tf_op_layer_RealDiv_16", "inbound_nodes": [[["tf_op_layer_Sub_16", 0, 0, {}], ["tf_op_layer_AddV2_16", 0, 0, {}]]]}, {"class_name": "TensorFlowOpLayer", "config": {"name": "RealDiv_18", "trainable": true, "dtype": "float32", "node_def": {"name": "RealDiv_18", "op": "RealDiv", "input": ["Sub_18", "AddV2_18"], "attr": {"T": {"type": "DT_FLOAT"}}}, "constants": {}}, "name": "tf_op_layer_RealDiv_18", "inbound_nodes": [[["tf_op_layer_Sub_18", 0, 0, {}], ["tf_op_layer_AddV2_18", 0, 0, {}]]]}, {"class_name": "TensorFlowOpLayer", "config": {"name": "RealDiv_17", "trainable": true, "dtype": "float32", "node_def": {"name": "RealDiv_17", "op": "RealDiv", "input": ["Sub_17", "AddV2_17"], "attr": {"T": {"type": "DT_FLOAT"}}}, "constants": {}}, "name": "tf_op_layer_RealDiv_17", "inbound_nodes": [[["tf_op_layer_Sub_17", 0, 0, {}], ["tf_op_layer_AddV2_17", 0, 0, {}]]]}, {"class_name": "TensorFlowOpLayer", "config": {"name": "RealDiv_19", "trainable": true, "dtype": "float32", "node_def": {"name": "RealDiv_19", "op": "RealDiv", "input": ["Sub_19", "AddV2_19"], "attr": {"T": {"type": "DT_FLOAT"}}}, "constants": {}}, "name": "tf_op_layer_RealDiv_19", "inbound_nodes": [[["tf_op_layer_Sub_19", 0, 0, {}], ["tf_op_layer_AddV2_19", 0, 0, {}]]]}, {"class_name": "TensorFlowOpLayer", "config": {"name": "Transpose_32", "trainable": true, "dtype": "float32", "node_def": {"name": "Transpose_32", "op": "Transpose", "input": ["RealDiv_16", "Transpose_32/perm"], "attr": {"T": {"type": "DT_FLOAT"}, "Tperm": {"type": "DT_INT32"}}}, "constants": {"1": [0, 2, 1]}}, "name": "tf_op_layer_Transpose_32", "inbound_nodes": [[["tf_op_layer_RealDiv_16", 0, 0, {}]]]}, {"class_name": "TensorFlowOpLayer", "config": {"name": "Transpose_36", "trainable": true, "dtype": "float32", "node_def": {"name": "Transpose_36", "op": "Transpose", "input": ["RealDiv_18", "Transpose_36/perm"], "attr": {"Tperm": {"type": "DT_INT32"}, "T": {"type": "DT_FLOAT"}}}, "constants": {"1": [0, 2, 1]}}, "name": "tf_op_layer_Transpose_36", "inbound_nodes": [[["tf_op_layer_RealDiv_18", 0, 0, {}]]]}, {"class_name": "TensorFlowOpLayer", "config": {"name": "Transpose_34", "trainable": true, "dtype": "float32", "node_def": {"name": "Transpose_34", "op": "Transpose", "input": ["RealDiv_17", "Transpose_34/perm"], "attr": {"T": {"type": "DT_FLOAT"}, "Tperm": {"type": "DT_INT32"}}}, "constants": {"1": [0, 2, 1]}}, "name": "tf_op_layer_Transpose_34", "inbound_nodes": [[["tf_op_layer_RealDiv_17", 0, 0, {}]]]}, {"class_name": "TensorFlowOpLayer", "config": {"name": "Transpose_38", "trainable": true, "dtype": "float32", "node_def": {"name": "Transpose_38", "op": "Transpose", "input": ["RealDiv_19", "Transpose_38/perm"], "attr": {"Tperm": {"type": "DT_INT32"}, "T": {"type": "DT_FLOAT"}}}, "constants": {"1": [0, 2, 1]}}, "name": "tf_op_layer_Transpose_38", "inbound_nodes": [[["tf_op_layer_RealDiv_19", 0, 0, {}]]]}, {"class_name": "TensorFlowOpLayer", "config": {"name": "Softmax_16", "trainable": true, "dtype": "float32", "node_def": {"name": "Softmax_16", "op": "Softmax", "input": ["Transpose_32"], "attr": {"T": {"type": "DT_FLOAT"}}}, "constants": {}}, "name": "tf_op_layer_Softmax_16", "inbound_nodes": [[["tf_op_layer_Transpose_32", 0, 0, {}]]]}, {"class_name": "TensorFlowOpLayer", "config": {"name": "Softmax_18", "trainable": true, "dtype": "float32", "node_def": {"name": "Softmax_18", "op": "Softmax", "input": ["Transpose_36"], "attr": {"T": {"type": "DT_FLOAT"}}}, "constants": {}}, "name": "tf_op_layer_Softmax_18", "inbound_nodes": [[["tf_op_layer_Transpose_36", 0, 0, {}]]]}, {"class_name": "TensorFlowOpLayer", "config": {"name": "Softmax_17", "trainable": true, "dtype": "float32", "node_def": {"name": "Softmax_17", "op": "Softmax", "input": ["Transpose_34"], "attr": {"T": {"type": "DT_FLOAT"}}}, "constants": {}}, "name": "tf_op_layer_Softmax_17", "inbound_nodes": [[["tf_op_layer_Transpose_34", 0, 0, {}]]]}, {"class_name": "TensorFlowOpLayer", "config": {"name": "Softmax_19", "trainable": true, "dtype": "float32", "node_def": {"name": "Softmax_19", "op": "Softmax", "input": ["Transpose_38"], "attr": {"T": {"type": "DT_FLOAT"}}}, "constants": {}}, "name": "tf_op_layer_Softmax_19", "inbound_nodes": [[["tf_op_layer_Transpose_38", 0, 0, {}]]]}, {"class_name": "TensorFlowOpLayer", "config": {"name": "Transpose_33", "trainable": true, "dtype": "float32", "node_def": {"name": "Transpose_33", "op": "Transpose", "input": ["Softmax_16", "Transpose_33/perm"], "attr": {"T": {"type": "DT_FLOAT"}, "Tperm": {"type": "DT_INT32"}}}, "constants": {"1": [0, 2, 1]}}, "name": "tf_op_layer_Transpose_33", "inbound_nodes": [[["tf_op_layer_Softmax_16", 0, 0, {}]]]}, {"class_name": "TensorFlowOpLayer", "config": {"name": "Transpose_37", "trainable": true, "dtype": "float32", "node_def": {"name": "Transpose_37", "op": "Transpose", "input": ["Softmax_18", "Transpose_37/perm"], "attr": {"Tperm": {"type": "DT_INT32"}, "T": {"type": "DT_FLOAT"}}}, "constants": {"1": [0, 2, 1]}}, "name": "tf_op_layer_Transpose_37", "inbound_nodes": [[["tf_op_layer_Softmax_18", 0, 0, {}]]]}, {"class_name": "TensorFlowOpLayer", "config": {"name": "Transpose_35", "trainable": true, "dtype": "float32", "node_def": {"name": "Transpose_35", "op": "Transpose", "input": ["Softmax_17", "Transpose_35/perm"], "attr": {"T": {"type": "DT_FLOAT"}, "Tperm": {"type": "DT_INT32"}}}, "constants": {"1": [0, 2, 1]}}, "name": "tf_op_layer_Transpose_35", "inbound_nodes": [[["tf_op_layer_Softmax_17", 0, 0, {}]]]}, {"class_name": "TensorFlowOpLayer", "config": {"name": "Transpose_39", "trainable": true, "dtype": "float32", "node_def": {"name": "Transpose_39", "op": "Transpose", "input": ["Softmax_19", "Transpose_39/perm"], "attr": {"T": {"type": "DT_FLOAT"}, "Tperm": {"type": "DT_INT32"}}}, "constants": {"1": [0, 2, 1]}}, "name": "tf_op_layer_Transpose_39", "inbound_nodes": [[["tf_op_layer_Softmax_19", 0, 0, {}]]]}, {"class_name": "Conv1D", "config": {"name": "conv1d_766", "trainable": true, "batch_input_shape": [null, 8, 1], "dtype": "float32", "filters": 16, "kernel_size": [3], "strides": [1], "padding": "valid", "data_format": "channels_last", "dilation_rate": [1], "groups": 1, "activation": "relu", "use_bias": true, "kernel_initializer": {"class_name": "GlorotUniform", "config": {"seed": null}}, "bias_initializer": {"class_name": "Zeros", "config": {}}, "kernel_regularizer": null, "bias_regularizer": null, "activity_regularizer": null, "kernel_constraint": null, "bias_constraint": null}, "name": "conv1d_766", "inbound_nodes": [[["tf_op_layer_Transpose_33", 0, 0, {}]]]}, {"class_name": "Conv1D", "config": {"name": "conv1d_770", "trainable": true, "batch_input_shape": [null, 8, 1], "dtype": "float32", "filters": 16, "kernel_size": [3], "strides": [1], "padding": "valid", "data_format": "channels_last", "dilation_rate": [1], "groups": 1, "activation": "relu", "use_bias": true, "kernel_initializer": {"class_name": "GlorotUniform", "config": {"seed": null}}, "bias_initializer": {"class_name": "Zeros", "config": {}}, "kernel_regularizer": null, "bias_regularizer": null, "activity_regularizer": null, "kernel_constraint": null, "bias_constraint": null}, "name": "conv1d_770", "inbound_nodes": [[["tf_op_layer_Transpose_37", 0, 0, {}]]]}, {"class_name": "Conv1D", "config": {"name": "conv1d_768", "trainable": true, "batch_input_shape": [null, 8, 1], "dtype": "float32", "filters": 16, "kernel_size": [3], "strides": [1], "padding": "valid", "data_format": "channels_last", "dilation_rate": [1], "groups": 1, "activation": "relu", "use_bias": true, "kernel_initializer": {"class_name": "GlorotUniform", "config": {"seed": null}}, "bias_initializer": {"class_name": "Zeros", "config": {}}, "kernel_regularizer": null, "bias_regularizer": null, "activity_regularizer": null, "kernel_constraint": null, "bias_constraint": null}, "name": "conv1d_768", "inbound_nodes": [[["tf_op_layer_Transpose_35", 0, 0, {}]]]}, {"class_name": "Conv1D", "config": {"name": "conv1d_772", "trainable": true, "batch_input_shape": [null, 8, 1], "dtype": "float32", "filters": 16, "kernel_size": [3], "strides": [1], "padding": "valid", "data_format": "channels_last", "dilation_rate": [1], "groups": 1, "activation": "relu", "use_bias": true, "kernel_initializer": {"class_name": "GlorotUniform", "config": {"seed": null}}, "bias_initializer": {"class_name": "Zeros", "config": {}}, "kernel_regularizer": null, "bias_regularizer": null, "activity_regularizer": null, "kernel_constraint": null, "bias_constraint": null}, "name": "conv1d_772", "inbound_nodes": [[["tf_op_layer_Transpose_39", 0, 0, {}]]]}, {"class_name": "Conv1D", "config": {"name": "conv1d_767", "trainable": true, "dtype": "float32", "filters": 16, "kernel_size": [3], "strides": [1], "padding": "valid", "data_format": "channels_last", "dilation_rate": [1], "groups": 1, "activation": "relu", "use_bias": true, "kernel_initializer": {"class_name": "GlorotUniform", "config": {"seed": null}}, "bias_initializer": {"class_name": "Zeros", "config": {}}, "kernel_regularizer": null, "bias_regularizer": null, "activity_regularizer": null, "kernel_constraint": null, "bias_constraint": null}, "name": "conv1d_767", "inbound_nodes": [[["conv1d_766", 0, 0, {}]]]}, {"class_name": "Conv1D", "config": {"name": "conv1d_771", "trainable": true, "dtype": "float32", "filters": 16, "kernel_size": [3], "strides": [1], "padding": "valid", "data_format": "channels_last", "dilation_rate": [1], "groups": 1, "activation": "relu", "use_bias": true, "kernel_initializer": {"class_name": "GlorotUniform", "config": {"seed": null}}, "bias_initializer": {"class_name": "Zeros", "config": {}}, "kernel_regularizer": null, "bias_regularizer": null, "activity_regularizer": null, "kernel_constraint": null, "bias_constraint": null}, "name": "conv1d_771", "inbound_nodes": [[["conv1d_770", 0, 0, {}]]]}, {"class_name": "Conv1D", "config": {"name": "conv1d_769", "trainable": true, "dtype": "float32", "filters": 16, "kernel_size": [3], "strides": [1], "padding": "valid", "data_format": "channels_last", "dilation_rate": [1], "groups": 1, "activation": "relu", "use_bias": true, "kernel_initializer": {"class_name": "GlorotUniform", "config": {"seed": null}}, "bias_initializer": {"class_name": "Zeros", "config": {}}, "kernel_regularizer": null, "bias_regularizer": null, "activity_regularizer": null, "kernel_constraint": null, "bias_constraint": null}, "name": "conv1d_769", "inbound_nodes": [[["conv1d_768", 0, 0, {}]]]}, {"class_name": "Conv1D", "config": {"name": "conv1d_773", "trainable": true, "dtype": "float32", "filters": 16, "kernel_size": [3], "strides": [1], "padding": "valid", "data_format": "channels_last", "dilation_rate": [1], "groups": 1, "activation": "relu", "use_bias": true, "kernel_initializer": {"class_name": "GlorotUniform", "config": {"seed": null}}, "bias_initializer": {"class_name": "Zeros", "config": {}}, "kernel_regularizer": null, "bias_regularizer": null, "activity_regularizer": null, "kernel_constraint": null, "bias_constraint": null}, "name": "conv1d_773", "inbound_nodes": [[["conv1d_772", 0, 0, {}]]]}, {"class_name": "Concatenate", "config": {"name": "concatenate_32", "trainable": true, "dtype": "float32", "axis": 1}, "name": "concatenate_32", "inbound_nodes": [[["conv1d_767", 0, 0, {}], ["conv1d_771", 0, 0, {}]]]}, {"class_name": "Concatenate", "config": {"name": "concatenate_33", "trainable": true, "dtype": "float32", "axis": 1}, "name": "concatenate_33", "inbound_nodes": [[["conv1d_769", 0, 0, {}], ["conv1d_767", 0, 0, {}]]]}, {"class_name": "Concatenate", "config": {"name": "concatenate_34", "trainable": true, "dtype": "float32", "axis": 1}, "name": "concatenate_34", "inbound_nodes": [[["conv1d_769", 0, 0, {}], ["conv1d_773", 0, 0, {}]]]}, {"class_name": "Concatenate", "config": {"name": "concatenate_35", "trainable": true, "dtype": "float32", "axis": 1}, "name": "concatenate_35", "inbound_nodes": [[["conv1d_771", 0, 0, {}], ["conv1d_769", 0, 0, {}]]]}, {"class_name": "Concatenate", "config": {"name": "concatenate_36", "trainable": true, "dtype": "float32", "axis": 1}, "name": "concatenate_36", "inbound_nodes": [[["conv1d_773", 0, 0, {}], ["conv1d_767", 0, 0, {}]]]}, {"class_name": "Concatenate", "config": {"name": "concatenate_37", "trainable": true, "dtype": "float32", "axis": 1}, "name": "concatenate_37", "inbound_nodes": [[["conv1d_773", 0, 0, {}], ["conv1d_771", 0, 0, {}]]]}, {"class_name": "Conv1D", "config": {"name": "conv1d_774", "trainable": true, "dtype": "float32", "filters": 8, "kernel_size": [3], "strides": [1], "padding": "valid", "data_format": "channels_last", "dilation_rate": [1], "groups": 1, "activation": "relu", "use_bias": true, "kernel_initializer": {"class_name": "GlorotUniform", "config": {"seed": null}}, "bias_initializer": {"class_name": "Zeros", "config": {}}, "kernel_regularizer": null, "bias_regularizer": null, "activity_regularizer": null, "kernel_constraint": null, "bias_constraint": null}, "name": "conv1d_774", "inbound_nodes": [[["concatenate_32", 0, 0, {}]]]}, {"class_name": "Conv1D", "config": {"name": "conv1d_786", "trainable": true, "dtype": "float32", "filters": 8, "kernel_size": [3], "strides": [1], "padding": "valid", "data_format": "channels_last", "dilation_rate": [1], "groups": 1, "activation": "relu", "use_bias": true, "kernel_initializer": {"class_name": "GlorotUniform", "config": {"seed": null}}, "bias_initializer": {"class_name": "Zeros", "config": {}}, "kernel_regularizer": null, "bias_regularizer": null, "activity_regularizer": null, "kernel_constraint": null, "bias_constraint": null}, "name": "conv1d_786", "inbound_nodes": [[["concatenate_33", 0, 0, {}]]]}, {"class_name": "Conv1D", "config": {"name": "conv1d_798", "trainable": true, "dtype": "float32", "filters": 8, "kernel_size": [3], "strides": [1], "padding": "valid", "data_format": "channels_last", "dilation_rate": [1], "groups": 1, "activation": "relu", "use_bias": true, "kernel_initializer": {"class_name": "GlorotUniform", "config": {"seed": null}}, "bias_initializer": {"class_name": "Zeros", "config": {}}, "kernel_regularizer": null, "bias_regularizer": null, "activity_regularizer": null, "kernel_constraint": null, "bias_constraint": null}, "name": "conv1d_798", "inbound_nodes": [[["concatenate_34", 0, 0, {}]]]}, {"class_name": "Conv1D", "config": {"name": "conv1d_810", "trainable": true, "dtype": "float32", "filters": 8, "kernel_size": [3], "strides": [1], "padding": "valid", "data_format": "channels_last", "dilation_rate": [1], "groups": 1, "activation": "relu", "use_bias": true, "kernel_initializer": {"class_name": "GlorotUniform", "config": {"seed": null}}, "bias_initializer": {"class_name": "Zeros", "config": {}}, "kernel_regularizer": null, "bias_regularizer": null, "activity_regularizer": null, "kernel_constraint": null, "bias_constraint": null}, "name": "conv1d_810", "inbound_nodes": [[["concatenate_35", 0, 0, {}]]]}, {"class_name": "Conv1D", "config": {"name": "conv1d_822", "trainable": true, "dtype": "float32", "filters": 8, "kernel_size": [3], "strides": [1], "padding": "valid", "data_format": "channels_last", "dilation_rate": [1], "groups": 1, "activation": "relu", "use_bias": true, "kernel_initializer": {"class_name": "GlorotUniform", "config": {"seed": null}}, "bias_initializer": {"class_name": "Zeros", "config": {}}, "kernel_regularizer": null, "bias_regularizer": null, "activity_regularizer": null, "kernel_constraint": null, "bias_constraint": null}, "name": "conv1d_822", "inbound_nodes": [[["concatenate_36", 0, 0, {}]]]}, {"class_name": "Conv1D", "config": {"name": "conv1d_834", "trainable": true, "dtype": "float32", "filters": 8, "kernel_size": [3], "strides": [1], "padding": "valid", "data_format": "channels_last", "dilation_rate": [1], "groups": 1, "activation": "relu", "use_bias": true, "kernel_initializer": {"class_name": "GlorotUniform", "config": {"seed": null}}, "bias_initializer": {"class_name": "Zeros", "config": {}}, "kernel_regularizer": null, "bias_regularizer": null, "activity_regularizer": null, "kernel_constraint": null, "bias_constraint": null}, "name": "conv1d_834", "inbound_nodes": [[["concatenate_37", 0, 0, {}]]]}, {"class_name": "Conv1D", "config": {"name": "conv1d_775", "trainable": true, "dtype": "float32", "filters": 8, "kernel_size": [3], "strides": [1], "padding": "valid", "data_format": "channels_last", "dilation_rate": [1], "groups": 1, "activation": "relu", "use_bias": true, "kernel_initializer": {"class_name": "GlorotUniform", "config": {"seed": null}}, "bias_initializer": {"class_name": "Zeros", "config": {}}, "kernel_regularizer": null, "bias_regularizer": null, "activity_regularizer": null, "kernel_constraint": null, "bias_constraint": null}, "name": "conv1d_775", "inbound_nodes": [[["conv1d_774", 0, 0, {}]]]}, {"class_name": "Conv1D", "config": {"name": "conv1d_787", "trainable": true, "dtype": "float32", "filters": 8, "kernel_size": [3], "strides": [1], "padding": "valid", "data_format": "channels_last", "dilation_rate": [1], "groups": 1, "activation": "relu", "use_bias": true, "kernel_initializer": {"class_name": "GlorotUniform", "config": {"seed": null}}, "bias_initializer": {"class_name": "Zeros", "config": {}}, "kernel_regularizer": null, "bias_regularizer": null, "activity_regularizer": null, "kernel_constraint": null, "bias_constraint": null}, "name": "conv1d_787", "inbound_nodes": [[["conv1d_786", 0, 0, {}]]]}, {"class_name": "Conv1D", "config": {"name": "conv1d_799", "trainable": true, "dtype": "float32", "filters": 8, "kernel_size": [3], "strides": [1], "padding": "valid", "data_format": "channels_last", "dilation_rate": [1], "groups": 1, "activation": "relu", "use_bias": true, "kernel_initializer": {"class_name": "GlorotUniform", "config": {"seed": null}}, "bias_initializer": {"class_name": "Zeros", "config": {}}, "kernel_regularizer": null, "bias_regularizer": null, "activity_regularizer": null, "kernel_constraint": null, "bias_constraint": null}, "name": "conv1d_799", "inbound_nodes": [[["conv1d_798", 0, 0, {}]]]}, {"class_name": "Conv1D", "config": {"name": "conv1d_811", "trainable": true, "dtype": "float32", "filters": 8, "kernel_size": [3], "strides": [1], "padding": "valid", "data_format": "channels_last", "dilation_rate": [1], "groups": 1, "activation": "relu", "use_bias": true, "kernel_initializer": {"class_name": "GlorotUniform", "config": {"seed": null}}, "bias_initializer": {"class_name": "Zeros", "config": {}}, "kernel_regularizer": null, "bias_regularizer": null, "activity_regularizer": null, "kernel_constraint": null, "bias_constraint": null}, "name": "conv1d_811", "inbound_nodes": [[["conv1d_810", 0, 0, {}]]]}, {"class_name": "Conv1D", "config": {"name": "conv1d_823", "trainable": true, "dtype": "float32", "filters": 8, "kernel_size": [3], "strides": [1], "padding": "valid", "data_format": "channels_last", "dilation_rate": [1], "groups": 1, "activation": "relu", "use_bias": true, "kernel_initializer": {"class_name": "GlorotUniform", "config": {"seed": null}}, "bias_initializer": {"class_name": "Zeros", "config": {}}, "kernel_regularizer": null, "bias_regularizer": null, "activity_regularizer": null, "kernel_constraint": null, "bias_constraint": null}, "name": "conv1d_823", "inbound_nodes": [[["conv1d_822", 0, 0, {}]]]}, {"class_name": "Conv1D", "config": {"name": "conv1d_835", "trainable": true, "dtype": "float32", "filters": 8, "kernel_size": [3], "strides": [1], "padding": "valid", "data_format": "channels_last", "dilation_rate": [1], "groups": 1, "activation": "relu", "use_bias": true, "kernel_initializer": {"class_name": "GlorotUniform", "config": {"seed": null}}, "bias_initializer": {"class_name": "Zeros", "config": {}}, "kernel_regularizer": null, "bias_regularizer": null, "activity_regularizer": null, "kernel_constraint": null, "bias_constraint": null}, "name": "conv1d_835", "inbound_nodes": [[["conv1d_834", 0, 0, {}]]]}, {"class_name": "Conv1D", "config": {"name": "conv1d_777", "trainable": true, "dtype": "float32", "filters": 8, "kernel_size": [1], "strides": [1], "padding": "valid", "data_format": "channels_last", "dilation_rate": [1], "groups": 1, "activation": "linear", "use_bias": true, "kernel_initializer": {"class_name": "GlorotUniform", "config": {"seed": null}}, "bias_initializer": {"class_name": "Zeros", "config": {}}, "kernel_regularizer": null, "bias_regularizer": null, "activity_regularizer": null, "kernel_constraint": null, "bias_constraint": null}, "name": "conv1d_777", "inbound_nodes": [[["conv1d_775", 0, 0, {}]]]}, {"class_name": "Conv1D", "config": {"name": "conv1d_789", "trainable": true, "dtype": "float32", "filters": 8, "kernel_size": [1], "strides": [1], "padding": "valid", "data_format": "channels_last", "dilation_rate": [1], "groups": 1, "activation": "linear", "use_bias": true, "kernel_initializer": {"class_name": "GlorotUniform", "config": {"seed": null}}, "bias_initializer": {"class_name": "Zeros", "config": {}}, "kernel_regularizer": null, "bias_regularizer": null, "activity_regularizer": null, "kernel_constraint": null, "bias_constraint": null}, "name": "conv1d_789", "inbound_nodes": [[["conv1d_787", 0, 0, {}]]]}, {"class_name": "Conv1D", "config": {"name": "conv1d_801", "trainable": true, "dtype": "float32", "filters": 8, "kernel_size": [1], "strides": [1], "padding": "valid", "data_format": "channels_last", "dilation_rate": [1], "groups": 1, "activation": "linear", "use_bias": true, "kernel_initializer": {"class_name": "GlorotUniform", "config": {"seed": null}}, "bias_initializer": {"class_name": "Zeros", "config": {}}, "kernel_regularizer": null, "bias_regularizer": null, "activity_regularizer": null, "kernel_constraint": null, "bias_constraint": null}, "name": "conv1d_801", "inbound_nodes": [[["conv1d_799", 0, 0, {}]]]}, {"class_name": "Conv1D", "config": {"name": "conv1d_813", "trainable": true, "dtype": "float32", "filters": 8, "kernel_size": [1], "strides": [1], "padding": "valid", "data_format": "channels_last", "dilation_rate": [1], "groups": 1, "activation": "linear", "use_bias": true, "kernel_initializer": {"class_name": "GlorotUniform", "config": {"seed": null}}, "bias_initializer": {"class_name": "Zeros", "config": {}}, "kernel_regularizer": null, "bias_regularizer": null, "activity_regularizer": null, "kernel_constraint": null, "bias_constraint": null}, "name": "conv1d_813", "inbound_nodes": [[["conv1d_811", 0, 0, {}]]]}, {"class_name": "Conv1D", "config": {"name": "conv1d_825", "trainable": true, "dtype": "float32", "filters": 8, "kernel_size": [1], "strides": [1], "padding": "valid", "data_format": "channels_last", "dilation_rate": [1], "groups": 1, "activation": "linear", "use_bias": true, "kernel_initializer": {"class_name": "GlorotUniform", "config": {"seed": null}}, "bias_initializer": {"class_name": "Zeros", "config": {}}, "kernel_regularizer": null, "bias_regularizer": null, "activity_regularizer": null, "kernel_constraint": null, "bias_constraint": null}, "name": "conv1d_825", "inbound_nodes": [[["conv1d_823", 0, 0, {}]]]}, {"class_name": "Conv1D", "config": {"name": "conv1d_837", "trainable": true, "dtype": "float32", "filters": 8, "kernel_size": [1], "strides": [1], "padding": "valid", "data_format": "channels_last", "dilation_rate": [1], "groups": 1, "activation": "linear", "use_bias": true, "kernel_initializer": {"class_name": "GlorotUniform", "config": {"seed": null}}, "bias_initializer": {"class_name": "Zeros", "config": {}}, "kernel_regularizer": null, "bias_regularizer": null, "activity_regularizer": null, "kernel_constraint": null, "bias_constraint": null}, "name": "conv1d_837", "inbound_nodes": [[["conv1d_835", 0, 0, {}]]]}, {"class_name": "BatchNormalization", "config": {"name": "batch_normalization_672", "trainable": true, "dtype": "float32", "axis": [2], "momentum": 0.99, "epsilon": 0.001, "center": true, "scale": true, "beta_initializer": {"class_name": "Zeros", "config": {}}, "gamma_initializer": {"class_name": "Ones", "config": {}}, "moving_mean_initializer": {"class_name": "Zeros", "config": {}}, "moving_variance_initializer": {"class_name": "Ones", "config": {}}, "beta_regularizer": null, "gamma_regularizer": null, "beta_constraint": null, "gamma_constraint": null}, "name": "batch_normalization_672", "inbound_nodes": [[["conv1d_777", 0, 0, {}]]]}, {"class_name": "BatchNormalization", "config": {"name": "batch_normalization_682", "trainable": true, "dtype": "float32", "axis": [2], "momentum": 0.99, "epsilon": 0.001, "center": true, "scale": true, "beta_initializer": {"class_name": "Zeros", "config": {}}, "gamma_initializer": {"class_name": "Ones", "config": {}}, "moving_mean_initializer": {"class_name": "Zeros", "config": {}}, "moving_variance_initializer": {"class_name": "Ones", "config": {}}, "beta_regularizer": null, "gamma_regularizer": null, "beta_constraint": null, "gamma_constraint": null}, "name": "batch_normalization_682", "inbound_nodes": [[["conv1d_789", 0, 0, {}]]]}, {"class_name": "BatchNormalization", "config": {"name": "batch_normalization_692", "trainable": true, "dtype": "float32", "axis": [2], "momentum": 0.99, "epsilon": 0.001, "center": true, "scale": true, "beta_initializer": {"class_name": "Zeros", "config": {}}, "gamma_initializer": {"class_name": "Ones", "config": {}}, "moving_mean_initializer": {"class_name": "Zeros", "config": {}}, "moving_variance_initializer": {"class_name": "Ones", "config": {}}, "beta_regularizer": null, "gamma_regularizer": null, "beta_constraint": null, "gamma_constraint": null}, "name": "batch_normalization_692", "inbound_nodes": [[["conv1d_801", 0, 0, {}]]]}, {"class_name": "BatchNormalization", "config": {"name": "batch_normalization_702", "trainable": true, "dtype": "float32", "axis": [2], "momentum": 0.99, "epsilon": 0.001, "center": true, "scale": true, "beta_initializer": {"class_name": "Zeros", "config": {}}, "gamma_initializer": {"class_name": "Ones", "config": {}}, "moving_mean_initializer": {"class_name": "Zeros", "config": {}}, "moving_variance_initializer": {"class_name": "Ones", "config": {}}, "beta_regularizer": null, "gamma_regularizer": null, "beta_constraint": null, "gamma_constraint": null}, "name": "batch_normalization_702", "inbound_nodes": [[["conv1d_813", 0, 0, {}]]]}, {"class_name": "BatchNormalization", "config": {"name": "batch_normalization_712", "trainable": true, "dtype": "float32", "axis": [2], "momentum": 0.99, "epsilon": 0.001, "center": true, "scale": true, "beta_initializer": {"class_name": "Zeros", "config": {}}, "gamma_initializer": {"class_name": "Ones", "config": {}}, "moving_mean_initializer": {"class_name": "Zeros", "config": {}}, "moving_variance_initializer": {"class_name": "Ones", "config": {}}, "beta_regularizer": null, "gamma_regularizer": null, "beta_constraint": null, "gamma_constraint": null}, "name": "batch_normalization_712", "inbound_nodes": [[["conv1d_825", 0, 0, {}]]]}, {"class_name": "BatchNormalization", "config": {"name": "batch_normalization_722", "trainable": true, "dtype": "float32", "axis": [2], "momentum": 0.99, "epsilon": 0.001, "center": true, "scale": true, "beta_initializer": {"class_name": "Zeros", "config": {}}, "gamma_initializer": {"class_name": "Ones", "config": {}}, "moving_mean_initializer": {"class_name": "Zeros", "config": {}}, "moving_variance_initializer": {"class_name": "Ones", "config": {}}, "beta_regularizer": null, "gamma_regularizer": null, "beta_constraint": null, "gamma_constraint": null}, "name": "batch_normalization_722", "inbound_nodes": [[["conv1d_837", 0, 0, {}]]]}, {"class_name": "Activation", "config": {"name": "activation_800", "trainable": true, "dtype": "float32", "activation": "relu"}, "name": "activation_800", "inbound_nodes": [[["batch_normalization_672", 0, 0, {}]]]}, {"class_name": "Activation", "config": {"name": "activation_812", "trainable": true, "dtype": "float32", "activation": "relu"}, "name": "activation_812", "inbound_nodes": [[["batch_normalization_682", 0, 0, {}]]]}, {"class_name": "Activation", "config": {"name": "activation_824", "trainable": true, "dtype": "float32", "activation": "relu"}, "name": "activation_824", "inbound_nodes": [[["batch_normalization_692", 0, 0, {}]]]}, {"class_name": "Activation", "config": {"name": "activation_836", "trainable": true, "dtype": "float32", "activation": "relu"}, "name": "activation_836", "inbound_nodes": [[["batch_normalization_702", 0, 0, {}]]]}, {"class_name": "Activation", "config": {"name": "activation_848", "trainable": true, "dtype": "float32", "activation": "relu"}, "name": "activation_848", "inbound_nodes": [[["batch_normalization_712", 0, 0, {}]]]}, {"class_name": "Activation", "config": {"name": "activation_860", "trainable": true, "dtype": "float32", "activation": "relu"}, "name": "activation_860", "inbound_nodes": [[["batch_normalization_722", 0, 0, {}]]]}, {"class_name": "Conv1D", "config": {"name": "conv1d_778", "trainable": true, "dtype": "float32", "filters": 8, "kernel_size": [3], "strides": [1], "padding": "same", "data_format": "channels_last", "dilation_rate": [1], "groups": 1, "activation": "linear", "use_bias": true, "kernel_initializer": {"class_name": "GlorotUniform", "config": {"seed": null}}, "bias_initializer": {"class_name": "Zeros", "config": {}}, "kernel_regularizer": null, "bias_regularizer": null, "activity_regularizer": null, "kernel_constraint": null, "bias_constraint": null}, "name": "conv1d_778", "inbound_nodes": [[["activation_800", 0, 0, {}]]]}, {"class_name": "Conv1D", "config": {"name": "conv1d_790", "trainable": true, "dtype": "float32", "filters": 8, "kernel_size": [3], "strides": [1], "padding": "same", "data_format": "channels_last", "dilation_rate": [1], "groups": 1, "activation": "linear", "use_bias": true, "kernel_initializer": {"class_name": "GlorotUniform", "config": {"seed": null}}, "bias_initializer": {"class_name": "Zeros", "config": {}}, "kernel_regularizer": null, "bias_regularizer": null, "activity_regularizer": null, "kernel_constraint": null, "bias_constraint": null}, "name": "conv1d_790", "inbound_nodes": [[["activation_812", 0, 0, {}]]]}, {"class_name": "Conv1D", "config": {"name": "conv1d_802", "trainable": true, "dtype": "float32", "filters": 8, "kernel_size": [3], "strides": [1], "padding": "same", "data_format": "channels_last", "dilation_rate": [1], "groups": 1, "activation": "linear", "use_bias": true, "kernel_initializer": {"class_name": "GlorotUniform", "config": {"seed": null}}, "bias_initializer": {"class_name": "Zeros", "config": {}}, "kernel_regularizer": null, "bias_regularizer": null, "activity_regularizer": null, "kernel_constraint": null, "bias_constraint": null}, "name": "conv1d_802", "inbound_nodes": [[["activation_824", 0, 0, {}]]]}, {"class_name": "Conv1D", "config": {"name": "conv1d_814", "trainable": true, "dtype": "float32", "filters": 8, "kernel_size": [3], "strides": [1], "padding": "same", "data_format": "channels_last", "dilation_rate": [1], "groups": 1, "activation": "linear", "use_bias": true, "kernel_initializer": {"class_name": "GlorotUniform", "config": {"seed": null}}, "bias_initializer": {"class_name": "Zeros", "config": {}}, "kernel_regularizer": null, "bias_regularizer": null, "activity_regularizer": null, "kernel_constraint": null, "bias_constraint": null}, "name": "conv1d_814", "inbound_nodes": [[["activation_836", 0, 0, {}]]]}, {"class_name": "Conv1D", "config": {"name": "conv1d_826", "trainable": true, "dtype": "float32", "filters": 8, "kernel_size": [3], "strides": [1], "padding": "same", "data_format": "channels_last", "dilation_rate": [1], "groups": 1, "activation": "linear", "use_bias": true, "kernel_initializer": {"class_name": "GlorotUniform", "config": {"seed": null}}, "bias_initializer": {"class_name": "Zeros", "config": {}}, "kernel_regularizer": null, "bias_regularizer": null, "activity_regularizer": null, "kernel_constraint": null, "bias_constraint": null}, "name": "conv1d_826", "inbound_nodes": [[["activation_848", 0, 0, {}]]]}, {"class_name": "Conv1D", "config": {"name": "conv1d_838", "trainable": true, "dtype": "float32", "filters": 8, "kernel_size": [3], "strides": [1], "padding": "same", "data_format": "channels_last", "dilation_rate": [1], "groups": 1, "activation": "linear", "use_bias": true, "kernel_initializer": {"class_name": "GlorotUniform", "config": {"seed": null}}, "bias_initializer": {"class_name": "Zeros", "config": {}}, "kernel_regularizer": null, "bias_regularizer": null, "activity_regularizer": null, "kernel_constraint": null, "bias_constraint": null}, "name": "conv1d_838", "inbound_nodes": [[["activation_860", 0, 0, {}]]]}, {"class_name": "BatchNormalization", "config": {"name": "batch_normalization_673", "trainable": true, "dtype": "float32", "axis": [2], "momentum": 0.99, "epsilon": 0.001, "center": true, "scale": true, "beta_initializer": {"class_name": "Zeros", "config": {}}, "gamma_initializer": {"class_name": "Ones", "config": {}}, "moving_mean_initializer": {"class_name": "Zeros", "config": {}}, "moving_variance_initializer": {"class_name": "Ones", "config": {}}, "beta_regularizer": null, "gamma_regularizer": null, "beta_constraint": null, "gamma_constraint": null}, "name": "batch_normalization_673", "inbound_nodes": [[["conv1d_778", 0, 0, {}]]]}, {"class_name": "BatchNormalization", "config": {"name": "batch_normalization_683", "trainable": true, "dtype": "float32", "axis": [2], "momentum": 0.99, "epsilon": 0.001, "center": true, "scale": true, "beta_initializer": {"class_name": "Zeros", "config": {}}, "gamma_initializer": {"class_name": "Ones", "config": {}}, "moving_mean_initializer": {"class_name": "Zeros", "config": {}}, "moving_variance_initializer": {"class_name": "Ones", "config": {}}, "beta_regularizer": null, "gamma_regularizer": null, "beta_constraint": null, "gamma_constraint": null}, "name": "batch_normalization_683", "inbound_nodes": [[["conv1d_790", 0, 0, {}]]]}, {"class_name": "BatchNormalization", "config": {"name": "batch_normalization_693", "trainable": true, "dtype": "float32", "axis": [2], "momentum": 0.99, "epsilon": 0.001, "center": true, "scale": true, "beta_initializer": {"class_name": "Zeros", "config": {}}, "gamma_initializer": {"class_name": "Ones", "config": {}}, "moving_mean_initializer": {"class_name": "Zeros", "config": {}}, "moving_variance_initializer": {"class_name": "Ones", "config": {}}, "beta_regularizer": null, "gamma_regularizer": null, "beta_constraint": null, "gamma_constraint": null}, "name": "batch_normalization_693", "inbound_nodes": [[["conv1d_802", 0, 0, {}]]]}, {"class_name": "BatchNormalization", "config": {"name": "batch_normalization_703", "trainable": true, "dtype": "float32", "axis": [2], "momentum": 0.99, "epsilon": 0.001, "center": true, "scale": true, "beta_initializer": {"class_name": "Zeros", "config": {}}, "gamma_initializer": {"class_name": "Ones", "config": {}}, "moving_mean_initializer": {"class_name": "Zeros", "config": {}}, "moving_variance_initializer": {"class_name": "Ones", "config": {}}, "beta_regularizer": null, "gamma_regularizer": null, "beta_constraint": null, "gamma_constraint": null}, "name": "batch_normalization_703", "inbound_nodes": [[["conv1d_814", 0, 0, {}]]]}, {"class_name": "BatchNormalization", "config": {"name": "batch_normalization_713", "trainable": true, "dtype": "float32", "axis": [2], "momentum": 0.99, "epsilon": 0.001, "center": true, "scale": true, "beta_initializer": {"class_name": "Zeros", "config": {}}, "gamma_initializer": {"class_name": "Ones", "config": {}}, "moving_mean_initializer": {"class_name": "Zeros", "config": {}}, "moving_variance_initializer": {"class_name": "Ones", "config": {}}, "beta_regularizer": null, "gamma_regularizer": null, "beta_constraint": null, "gamma_constraint": null}, "name": "batch_normalization_713", "inbound_nodes": [[["conv1d_826", 0, 0, {}]]]}, {"class_name": "BatchNormalization", "config": {"name": "batch_normalization_723", "trainable": true, "dtype": "float32", "axis": [2], "momentum": 0.99, "epsilon": 0.001, "center": true, "scale": true, "beta_initializer": {"class_name": "Zeros", "config": {}}, "gamma_initializer": {"class_name": "Ones", "config": {}}, "moving_mean_initializer": {"class_name": "Zeros", "config": {}}, "moving_variance_initializer": {"class_name": "Ones", "config": {}}, "beta_regularizer": null, "gamma_regularizer": null, "beta_constraint": null, "gamma_constraint": null}, "name": "batch_normalization_723", "inbound_nodes": [[["conv1d_838", 0, 0, {}]]]}, {"class_name": "Activation", "config": {"name": "activation_801", "trainable": true, "dtype": "float32", "activation": "relu"}, "name": "activation_801", "inbound_nodes": [[["batch_normalization_673", 0, 0, {}]]]}, {"class_name": "Activation", "config": {"name": "activation_813", "trainable": true, "dtype": "float32", "activation": "relu"}, "name": "activation_813", "inbound_nodes": [[["batch_normalization_683", 0, 0, {}]]]}, {"class_name": "Activation", "config": {"name": "activation_825", "trainable": true, "dtype": "float32", "activation": "relu"}, "name": "activation_825", "inbound_nodes": [[["batch_normalization_693", 0, 0, {}]]]}, {"class_name": "Activation", "config": {"name": "activation_837", "trainable": true, "dtype": "float32", "activation": "relu"}, "name": "activation_837", "inbound_nodes": [[["batch_normalization_703", 0, 0, {}]]]}, {"class_name": "Activation", "config": {"name": "activation_849", "trainable": true, "dtype": "float32", "activation": "relu"}, "name": "activation_849", "inbound_nodes": [[["batch_normalization_713", 0, 0, {}]]]}, {"class_name": "Activation", "config": {"name": "activation_861", "trainable": true, "dtype": "float32", "activation": "relu"}, "name": "activation_861", "inbound_nodes": [[["batch_normalization_723", 0, 0, {}]]]}, {"class_name": "Conv1D", "config": {"name": "conv1d_779", "trainable": true, "dtype": "float32", "filters": 32, "kernel_size": [1], "strides": [1], "padding": "valid", "data_format": "channels_last", "dilation_rate": [1], "groups": 1, "activation": "linear", "use_bias": true, "kernel_initializer": {"class_name": "GlorotUniform", "config": {"seed": null}}, "bias_initializer": {"class_name": "Zeros", "config": {}}, "kernel_regularizer": null, "bias_regularizer": null, "activity_regularizer": null, "kernel_constraint": null, "bias_constraint": null}, "name": "conv1d_779", "inbound_nodes": [[["activation_801", 0, 0, {}]]]}, {"class_name": "Conv1D", "config": {"name": "conv1d_791", "trainable": true, "dtype": "float32", "filters": 32, "kernel_size": [1], "strides": [1], "padding": "valid", "data_format": "channels_last", "dilation_rate": [1], "groups": 1, "activation": "linear", "use_bias": true, "kernel_initializer": {"class_name": "GlorotUniform", "config": {"seed": null}}, "bias_initializer": {"class_name": "Zeros", "config": {}}, "kernel_regularizer": null, "bias_regularizer": null, "activity_regularizer": null, "kernel_constraint": null, "bias_constraint": null}, "name": "conv1d_791", "inbound_nodes": [[["activation_813", 0, 0, {}]]]}, {"class_name": "Conv1D", "config": {"name": "conv1d_803", "trainable": true, "dtype": "float32", "filters": 32, "kernel_size": [1], "strides": [1], "padding": "valid", "data_format": "channels_last", "dilation_rate": [1], "groups": 1, "activation": "linear", "use_bias": true, "kernel_initializer": {"class_name": "GlorotUniform", "config": {"seed": null}}, "bias_initializer": {"class_name": "Zeros", "config": {}}, "kernel_regularizer": null, "bias_regularizer": null, "activity_regularizer": null, "kernel_constraint": null, "bias_constraint": null}, "name": "conv1d_803", "inbound_nodes": [[["activation_825", 0, 0, {}]]]}, {"class_name": "Conv1D", "config": {"name": "conv1d_815", "trainable": true, "dtype": "float32", "filters": 32, "kernel_size": [1], "strides": [1], "padding": "valid", "data_format": "channels_last", "dilation_rate": [1], "groups": 1, "activation": "linear", "use_bias": true, "kernel_initializer": {"class_name": "GlorotUniform", "config": {"seed": null}}, "bias_initializer": {"class_name": "Zeros", "config": {}}, "kernel_regularizer": null, "bias_regularizer": null, "activity_regularizer": null, "kernel_constraint": null, "bias_constraint": null}, "name": "conv1d_815", "inbound_nodes": [[["activation_837", 0, 0, {}]]]}, {"class_name": "Conv1D", "config": {"name": "conv1d_827", "trainable": true, "dtype": "float32", "filters": 32, "kernel_size": [1], "strides": [1], "padding": "valid", "data_format": "channels_last", "dilation_rate": [1], "groups": 1, "activation": "linear", "use_bias": true, "kernel_initializer": {"class_name": "GlorotUniform", "config": {"seed": null}}, "bias_initializer": {"class_name": "Zeros", "config": {}}, "kernel_regularizer": null, "bias_regularizer": null, "activity_regularizer": null, "kernel_constraint": null, "bias_constraint": null}, "name": "conv1d_827", "inbound_nodes": [[["activation_849", 0, 0, {}]]]}, {"class_name": "Conv1D", "config": {"name": "conv1d_839", "trainable": true, "dtype": "float32", "filters": 32, "kernel_size": [1], "strides": [1], "padding": "valid", "data_format": "channels_last", "dilation_rate": [1], "groups": 1, "activation": "linear", "use_bias": true, "kernel_initializer": {"class_name": "GlorotUniform", "config": {"seed": null}}, "bias_initializer": {"class_name": "Zeros", "config": {}}, "kernel_regularizer": null, "bias_regularizer": null, "activity_regularizer": null, "kernel_constraint": null, "bias_constraint": null}, "name": "conv1d_839", "inbound_nodes": [[["activation_861", 0, 0, {}]]]}, {"class_name": "BatchNormalization", "config": {"name": "batch_normalization_674", "trainable": true, "dtype": "float32", "axis": [2], "momentum": 0.99, "epsilon": 0.001, "center": true, "scale": true, "beta_initializer": {"class_name": "Zeros", "config": {}}, "gamma_initializer": {"class_name": "Ones", "config": {}}, "moving_mean_initializer": {"class_name": "Zeros", "config": {}}, "moving_variance_initializer": {"class_name": "Ones", "config": {}}, "beta_regularizer": null, "gamma_regularizer": null, "beta_constraint": null, "gamma_constraint": null}, "name": "batch_normalization_674", "inbound_nodes": [[["conv1d_779", 0, 0, {}]]]}, {"class_name": "Conv1D", "config": {"name": "conv1d_776", "trainable": true, "dtype": "float32", "filters": 32, "kernel_size": [1], "strides": [1], "padding": "valid", "data_format": "channels_last", "dilation_rate": [1], "groups": 1, "activation": "linear", "use_bias": true, "kernel_initializer": {"class_name": "GlorotUniform", "config": {"seed": null}}, "bias_initializer": {"class_name": "Zeros", "config": {}}, "kernel_regularizer": null, "bias_regularizer": null, "activity_regularizer": null, "kernel_constraint": null, "bias_constraint": null}, "name": "conv1d_776", "inbound_nodes": [[["conv1d_775", 0, 0, {}]]]}, {"class_name": "BatchNormalization", "config": {"name": "batch_normalization_684", "trainable": true, "dtype": "float32", "axis": [2], "momentum": 0.99, "epsilon": 0.001, "center": true, "scale": true, "beta_initializer": {"class_name": "Zeros", "config": {}}, "gamma_initializer": {"class_name": "Ones", "config": {}}, "moving_mean_initializer": {"class_name": "Zeros", "config": {}}, "moving_variance_initializer": {"class_name": "Ones", "config": {}}, "beta_regularizer": null, "gamma_regularizer": null, "beta_constraint": null, "gamma_constraint": null}, "name": "batch_normalization_684", "inbound_nodes": [[["conv1d_791", 0, 0, {}]]]}, {"class_name": "Conv1D", "config": {"name": "conv1d_788", "trainable": true, "dtype": "float32", "filters": 32, "kernel_size": [1], "strides": [1], "padding": "valid", "data_format": "channels_last", "dilation_rate": [1], "groups": 1, "activation": "linear", "use_bias": true, "kernel_initializer": {"class_name": "GlorotUniform", "config": {"seed": null}}, "bias_initializer": {"class_name": "Zeros", "config": {}}, "kernel_regularizer": null, "bias_regularizer": null, "activity_regularizer": null, "kernel_constraint": null, "bias_constraint": null}, "name": "conv1d_788", "inbound_nodes": [[["conv1d_787", 0, 0, {}]]]}, {"class_name": "BatchNormalization", "config": {"name": "batch_normalization_694", "trainable": true, "dtype": "float32", "axis": [2], "momentum": 0.99, "epsilon": 0.001, "center": true, "scale": true, "beta_initializer": {"class_name": "Zeros", "config": {}}, "gamma_initializer": {"class_name": "Ones", "config": {}}, "moving_mean_initializer": {"class_name": "Zeros", "config": {}}, "moving_variance_initializer": {"class_name": "Ones", "config": {}}, "beta_regularizer": null, "gamma_regularizer": null, "beta_constraint": null, "gamma_constraint": null}, "name": "batch_normalization_694", "inbound_nodes": [[["conv1d_803", 0, 0, {}]]]}, {"class_name": "Conv1D", "config": {"name": "conv1d_800", "trainable": true, "dtype": "float32", "filters": 32, "kernel_size": [1], "strides": [1], "padding": "valid", "data_format": "channels_last", "dilation_rate": [1], "groups": 1, "activation": "linear", "use_bias": true, "kernel_initializer": {"class_name": "GlorotUniform", "config": {"seed": null}}, "bias_initializer": {"class_name": "Zeros", "config": {}}, "kernel_regularizer": null, "bias_regularizer": null, "activity_regularizer": null, "kernel_constraint": null, "bias_constraint": null}, "name": "conv1d_800", "inbound_nodes": [[["conv1d_799", 0, 0, {}]]]}, {"class_name": "BatchNormalization", "config": {"name": "batch_normalization_704", "trainable": true, "dtype": "float32", "axis": [2], "momentum": 0.99, "epsilon": 0.001, "center": true, "scale": true, "beta_initializer": {"class_name": "Zeros", "config": {}}, "gamma_initializer": {"class_name": "Ones", "config": {}}, "moving_mean_initializer": {"class_name": "Zeros", "config": {}}, "moving_variance_initializer": {"class_name": "Ones", "config": {}}, "beta_regularizer": null, "gamma_regularizer": null, "beta_constraint": null, "gamma_constraint": null}, "name": "batch_normalization_704", "inbound_nodes": [[["conv1d_815", 0, 0, {}]]]}, {"class_name": "Conv1D", "config": {"name": "conv1d_812", "trainable": true, "dtype": "float32", "filters": 32, "kernel_size": [1], "strides": [1], "padding": "valid", "data_format": "channels_last", "dilation_rate": [1], "groups": 1, "activation": "linear", "use_bias": true, "kernel_initializer": {"class_name": "GlorotUniform", "config": {"seed": null}}, "bias_initializer": {"class_name": "Zeros", "config": {}}, "kernel_regularizer": null, "bias_regularizer": null, "activity_regularizer": null, "kernel_constraint": null, "bias_constraint": null}, "name": "conv1d_812", "inbound_nodes": [[["conv1d_811", 0, 0, {}]]]}, {"class_name": "BatchNormalization", "config": {"name": "batch_normalization_714", "trainable": true, "dtype": "float32", "axis": [2], "momentum": 0.99, "epsilon": 0.001, "center": true, "scale": true, "beta_initializer": {"class_name": "Zeros", "config": {}}, "gamma_initializer": {"class_name": "Ones", "config": {}}, "moving_mean_initializer": {"class_name": "Zeros", "config": {}}, "moving_variance_initializer": {"class_name": "Ones", "config": {}}, "beta_regularizer": null, "gamma_regularizer": null, "beta_constraint": null, "gamma_constraint": null}, "name": "batch_normalization_714", "inbound_nodes": [[["conv1d_827", 0, 0, {}]]]}, {"class_name": "Conv1D", "config": {"name": "conv1d_824", "trainable": true, "dtype": "float32", "filters": 32, "kernel_size": [1], "strides": [1], "padding": "valid", "data_format": "channels_last", "dilation_rate": [1], "groups": 1, "activation": "linear", "use_bias": true, "kernel_initializer": {"class_name": "GlorotUniform", "config": {"seed": null}}, "bias_initializer": {"class_name": "Zeros", "config": {}}, "kernel_regularizer": null, "bias_regularizer": null, "activity_regularizer": null, "kernel_constraint": null, "bias_constraint": null}, "name": "conv1d_824", "inbound_nodes": [[["conv1d_823", 0, 0, {}]]]}, {"class_name": "BatchNormalization", "config": {"name": "batch_normalization_724", "trainable": true, "dtype": "float32", "axis": [2], "momentum": 0.99, "epsilon": 0.001, "center": true, "scale": true, "beta_initializer": {"class_name": "Zeros", "config": {}}, "gamma_initializer": {"class_name": "Ones", "config": {}}, "moving_mean_initializer": {"class_name": "Zeros", "config": {}}, "moving_variance_initializer": {"class_name": "Ones", "config": {}}, "beta_regularizer": null, "gamma_regularizer": null, "beta_constraint": null, "gamma_constraint": null}, "name": "batch_normalization_724", "inbound_nodes": [[["conv1d_839", 0, 0, {}]]]}, {"class_name": "Conv1D", "config": {"name": "conv1d_836", "trainable": true, "dtype": "float32", "filters": 32, "kernel_size": [1], "strides": [1], "padding": "valid", "data_format": "channels_last", "dilation_rate": [1], "groups": 1, "activation": "linear", "use_bias": true, "kernel_initializer": {"class_name": "GlorotUniform", "config": {"seed": null}}, "bias_initializer": {"class_name": "Zeros", "config": {}}, "kernel_regularizer": null, "bias_regularizer": null, "activity_regularizer": null, "kernel_constraint": null, "bias_constraint": null}, "name": "conv1d_836", "inbound_nodes": [[["conv1d_835", 0, 0, {}]]]}, {"class_name": "Activation", "config": {"name": "activation_802", "trainable": true, "dtype": "float32", "activation": "relu"}, "name": "activation_802", "inbound_nodes": [[["batch_normalization_674", 0, 0, {}]]]}, {"class_name": "BatchNormalization", "config": {"name": "batch_normalization_671", "trainable": true, "dtype": "float32", "axis": [2], "momentum": 0.99, "epsilon": 0.001, "center": true, "scale": true, "beta_initializer": {"class_name": "Zeros", "config": {}}, "gamma_initializer": {"class_name": "Ones", "config": {}}, "moving_mean_initializer": {"class_name": "Zeros", "config": {}}, "moving_variance_initializer": {"class_name": "Ones", "config": {}}, "beta_regularizer": null, "gamma_regularizer": null, "beta_constraint": null, "gamma_constraint": null}, "name": "batch_normalization_671", "inbound_nodes": [[["conv1d_776", 0, 0, {}]]]}, {"class_name": "Activation", "config": {"name": "activation_814", "trainable": true, "dtype": "float32", "activation": "relu"}, "name": "activation_814", "inbound_nodes": [[["batch_normalization_684", 0, 0, {}]]]}, {"class_name": "BatchNormalization", "config": {"name": "batch_normalization_681", "trainable": true, "dtype": "float32", "axis": [2], "momentum": 0.99, "epsilon": 0.001, "center": true, "scale": true, "beta_initializer": {"class_name": "Zeros", "config": {}}, "gamma_initializer": {"class_name": "Ones", "config": {}}, "moving_mean_initializer": {"class_name": "Zeros", "config": {}}, "moving_variance_initializer": {"class_name": "Ones", "config": {}}, "beta_regularizer": null, "gamma_regularizer": null, "beta_constraint": null, "gamma_constraint": null}, "name": "batch_normalization_681", "inbound_nodes": [[["conv1d_788", 0, 0, {}]]]}, {"class_name": "Activation", "config": {"name": "activation_826", "trainable": true, "dtype": "float32", "activation": "relu"}, "name": "activation_826", "inbound_nodes": [[["batch_normalization_694", 0, 0, {}]]]}, {"class_name": "BatchNormalization", "config": {"name": "batch_normalization_691", "trainable": true, "dtype": "float32", "axis": [2], "momentum": 0.99, "epsilon": 0.001, "center": true, "scale": true, "beta_initializer": {"class_name": "Zeros", "config": {}}, "gamma_initializer": {"class_name": "Ones", "config": {}}, "moving_mean_initializer": {"class_name": "Zeros", "config": {}}, "moving_variance_initializer": {"class_name": "Ones", "config": {}}, "beta_regularizer": null, "gamma_regularizer": null, "beta_constraint": null, "gamma_constraint": null}, "name": "batch_normalization_691", "inbound_nodes": [[["conv1d_800", 0, 0, {}]]]}, {"class_name": "Activation", "config": {"name": "activation_838", "trainable": true, "dtype": "float32", "activation": "relu"}, "name": "activation_838", "inbound_nodes": [[["batch_normalization_704", 0, 0, {}]]]}, {"class_name": "BatchNormalization", "config": {"name": "batch_normalization_701", "trainable": true, "dtype": "float32", "axis": [2], "momentum": 0.99, "epsilon": 0.001, "center": true, "scale": true, "beta_initializer": {"class_name": "Zeros", "config": {}}, "gamma_initializer": {"class_name": "Ones", "config": {}}, "moving_mean_initializer": {"class_name": "Zeros", "config": {}}, "moving_variance_initializer": {"class_name": "Ones", "config": {}}, "beta_regularizer": null, "gamma_regularizer": null, "beta_constraint": null, "gamma_constraint": null}, "name": "batch_normalization_701", "inbound_nodes": [[["conv1d_812", 0, 0, {}]]]}, {"class_name": "Activation", "config": {"name": "activation_850", "trainable": true, "dtype": "float32", "activation": "relu"}, "name": "activation_850", "inbound_nodes": [[["batch_normalization_714", 0, 0, {}]]]}, {"class_name": "BatchNormalization", "config": {"name": "batch_normalization_711", "trainable": true, "dtype": "float32", "axis": [2], "momentum": 0.99, "epsilon": 0.001, "center": true, "scale": true, "beta_initializer": {"class_name": "Zeros", "config": {}}, "gamma_initializer": {"class_name": "Ones", "config": {}}, "moving_mean_initializer": {"class_name": "Zeros", "config": {}}, "moving_variance_initializer": {"class_name": "Ones", "config": {}}, "beta_regularizer": null, "gamma_regularizer": null, "beta_constraint": null, "gamma_constraint": null}, "name": "batch_normalization_711", "inbound_nodes": [[["conv1d_824", 0, 0, {}]]]}, {"class_name": "Activation", "config": {"name": "activation_862", "trainable": true, "dtype": "float32", "activation": "relu"}, "name": "activation_862", "inbound_nodes": [[["batch_normalization_724", 0, 0, {}]]]}, {"class_name": "BatchNormalization", "config": {"name": "batch_normalization_721", "trainable": true, "dtype": "float32", "axis": [2], "momentum": 0.99, "epsilon": 0.001, "center": true, "scale": true, "beta_initializer": {"class_name": "Zeros", "config": {}}, "gamma_initializer": {"class_name": "Ones", "config": {}}, "moving_mean_initializer": {"class_name": "Zeros", "config": {}}, "moving_variance_initializer": {"class_name": "Ones", "config": {}}, "beta_regularizer": null, "gamma_regularizer": null, "beta_constraint": null, "gamma_constraint": null}, "name": "batch_normalization_721", "inbound_nodes": [[["conv1d_836", 0, 0, {}]]]}, {"class_name": "Add", "config": {"name": "add_200", "trainable": true, "dtype": "float32"}, "name": "add_200", "inbound_nodes": [[["activation_802", 0, 0, {}], ["batch_normalization_671", 0, 0, {}]]]}, {"class_name": "Add", "config": {"name": "add_203", "trainable": true, "dtype": "float32"}, "name": "add_203", "inbound_nodes": [[["activation_814", 0, 0, {}], ["batch_normalization_681", 0, 0, {}]]]}, {"class_name": "Add", "config": {"name": "add_206", "trainable": true, "dtype": "float32"}, "name": "add_206", "inbound_nodes": [[["activation_826", 0, 0, {}], ["batch_normalization_691", 0, 0, {}]]]}, {"class_name": "Add", "config": {"name": "add_209", "trainable": true, "dtype": "float32"}, "name": "add_209", "inbound_nodes": [[["activation_838", 0, 0, {}], ["batch_normalization_701", 0, 0, {}]]]}, {"class_name": "Add", "config": {"name": "add_212", "trainable": true, "dtype": "float32"}, "name": "add_212", "inbound_nodes": [[["activation_850", 0, 0, {}], ["batch_normalization_711", 0, 0, {}]]]}, {"class_name": "Add", "config": {"name": "add_215", "trainable": true, "dtype": "float32"}, "name": "add_215", "inbound_nodes": [[["activation_862", 0, 0, {}], ["batch_normalization_721", 0, 0, {}]]]}, {"class_name": "Activation", "config": {"name": "activation_803", "trainable": true, "dtype": "float32", "activation": "relu"}, "name": "activation_803", "inbound_nodes": [[["add_200", 0, 0, {}]]]}, {"class_name": "Activation", "config": {"name": "activation_815", "trainable": true, "dtype": "float32", "activation": "relu"}, "name": "activation_815", "inbound_nodes": [[["add_203", 0, 0, {}]]]}, {"class_name": "Activation", "config": {"name": "activation_827", "trainable": true, "dtype": "float32", "activation": "relu"}, "name": "activation_827", "inbound_nodes": [[["add_206", 0, 0, {}]]]}, {"class_name": "Activation", "config": {"name": "activation_839", "trainable": true, "dtype": "float32", "activation": "relu"}, "name": "activation_839", "inbound_nodes": [[["add_209", 0, 0, {}]]]}, {"class_name": "Activation", "config": {"name": "activation_851", "trainable": true, "dtype": "float32", "activation": "relu"}, "name": "activation_851", "inbound_nodes": [[["add_212", 0, 0, {}]]]}, {"class_name": "Activation", "config": {"name": "activation_863", "trainable": true, "dtype": "float32", "activation": "relu"}, "name": "activation_863", "inbound_nodes": [[["add_215", 0, 0, {}]]]}, {"class_name": "Conv1D", "config": {"name": "conv1d_780", "trainable": true, "dtype": "float32", "filters": 8, "kernel_size": [1], "strides": [1], "padding": "valid", "data_format": "channels_last", "dilation_rate": [1], "groups": 1, "activation": "linear", "use_bias": true, "kernel_initializer": {"class_name": "GlorotUniform", "config": {"seed": null}}, "bias_initializer": {"class_name": "Zeros", "config": {}}, "kernel_regularizer": null, "bias_regularizer": null, "activity_regularizer": null, "kernel_constraint": null, "bias_constraint": null}, "name": "conv1d_780", "inbound_nodes": [[["activation_803", 0, 0, {}]]]}, {"class_name": "Conv1D", "config": {"name": "conv1d_792", "trainable": true, "dtype": "float32", "filters": 8, "kernel_size": [1], "strides": [1], "padding": "valid", "data_format": "channels_last", "dilation_rate": [1], "groups": 1, "activation": "linear", "use_bias": true, "kernel_initializer": {"class_name": "GlorotUniform", "config": {"seed": null}}, "bias_initializer": {"class_name": "Zeros", "config": {}}, "kernel_regularizer": null, "bias_regularizer": null, "activity_regularizer": null, "kernel_constraint": null, "bias_constraint": null}, "name": "conv1d_792", "inbound_nodes": [[["activation_815", 0, 0, {}]]]}, {"class_name": "Conv1D", "config": {"name": "conv1d_804", "trainable": true, "dtype": "float32", "filters": 8, "kernel_size": [1], "strides": [1], "padding": "valid", "data_format": "channels_last", "dilation_rate": [1], "groups": 1, "activation": "linear", "use_bias": true, "kernel_initializer": {"class_name": "GlorotUniform", "config": {"seed": null}}, "bias_initializer": {"class_name": "Zeros", "config": {}}, "kernel_regularizer": null, "bias_regularizer": null, "activity_regularizer": null, "kernel_constraint": null, "bias_constraint": null}, "name": "conv1d_804", "inbound_nodes": [[["activation_827", 0, 0, {}]]]}, {"class_name": "Conv1D", "config": {"name": "conv1d_816", "trainable": true, "dtype": "float32", "filters": 8, "kernel_size": [1], "strides": [1], "padding": "valid", "data_format": "channels_last", "dilation_rate": [1], "groups": 1, "activation": "linear", "use_bias": true, "kernel_initializer": {"class_name": "GlorotUniform", "config": {"seed": null}}, "bias_initializer": {"class_name": "Zeros", "config": {}}, "kernel_regularizer": null, "bias_regularizer": null, "activity_regularizer": null, "kernel_constraint": null, "bias_constraint": null}, "name": "conv1d_816", "inbound_nodes": [[["activation_839", 0, 0, {}]]]}, {"class_name": "Conv1D", "config": {"name": "conv1d_828", "trainable": true, "dtype": "float32", "filters": 8, "kernel_size": [1], "strides": [1], "padding": "valid", "data_format": "channels_last", "dilation_rate": [1], "groups": 1, "activation": "linear", "use_bias": true, "kernel_initializer": {"class_name": "GlorotUniform", "config": {"seed": null}}, "bias_initializer": {"class_name": "Zeros", "config": {}}, "kernel_regularizer": null, "bias_regularizer": null, "activity_regularizer": null, "kernel_constraint": null, "bias_constraint": null}, "name": "conv1d_828", "inbound_nodes": [[["activation_851", 0, 0, {}]]]}, {"class_name": "Conv1D", "config": {"name": "conv1d_840", "trainable": true, "dtype": "float32", "filters": 8, "kernel_size": [1], "strides": [1], "padding": "valid", "data_format": "channels_last", "dilation_rate": [1], "groups": 1, "activation": "linear", "use_bias": true, "kernel_initializer": {"class_name": "GlorotUniform", "config": {"seed": null}}, "bias_initializer": {"class_name": "Zeros", "config": {}}, "kernel_regularizer": null, "bias_regularizer": null, "activity_regularizer": null, "kernel_constraint": null, "bias_constraint": null}, "name": "conv1d_840", "inbound_nodes": [[["activation_863", 0, 0, {}]]]}, {"class_name": "BatchNormalization", "config": {"name": "batch_normalization_675", "trainable": true, "dtype": "float32", "axis": [2], "momentum": 0.99, "epsilon": 0.001, "center": true, "scale": true, "beta_initializer": {"class_name": "Zeros", "config": {}}, "gamma_initializer": {"class_name": "Ones", "config": {}}, "moving_mean_initializer": {"class_name": "Zeros", "config": {}}, "moving_variance_initializer": {"class_name": "Ones", "config": {}}, "beta_regularizer": null, "gamma_regularizer": null, "beta_constraint": null, "gamma_constraint": null}, "name": "batch_normalization_675", "inbound_nodes": [[["conv1d_780", 0, 0, {}]]]}, {"class_name": "BatchNormalization", "config": {"name": "batch_normalization_685", "trainable": true, "dtype": "float32", "axis": [2], "momentum": 0.99, "epsilon": 0.001, "center": true, "scale": true, "beta_initializer": {"class_name": "Zeros", "config": {}}, "gamma_initializer": {"class_name": "Ones", "config": {}}, "moving_mean_initializer": {"class_name": "Zeros", "config": {}}, "moving_variance_initializer": {"class_name": "Ones", "config": {}}, "beta_regularizer": null, "gamma_regularizer": null, "beta_constraint": null, "gamma_constraint": null}, "name": "batch_normalization_685", "inbound_nodes": [[["conv1d_792", 0, 0, {}]]]}, {"class_name": "BatchNormalization", "config": {"name": "batch_normalization_695", "trainable": true, "dtype": "float32", "axis": [2], "momentum": 0.99, "epsilon": 0.001, "center": true, "scale": true, "beta_initializer": {"class_name": "Zeros", "config": {}}, "gamma_initializer": {"class_name": "Ones", "config": {}}, "moving_mean_initializer": {"class_name": "Zeros", "config": {}}, "moving_variance_initializer": {"class_name": "Ones", "config": {}}, "beta_regularizer": null, "gamma_regularizer": null, "beta_constraint": null, "gamma_constraint": null}, "name": "batch_normalization_695", "inbound_nodes": [[["conv1d_804", 0, 0, {}]]]}, {"class_name": "BatchNormalization", "config": {"name": "batch_normalization_705", "trainable": true, "dtype": "float32", "axis": [2], "momentum": 0.99, "epsilon": 0.001, "center": true, "scale": true, "beta_initializer": {"class_name": "Zeros", "config": {}}, "gamma_initializer": {"class_name": "Ones", "config": {}}, "moving_mean_initializer": {"class_name": "Zeros", "config": {}}, "moving_variance_initializer": {"class_name": "Ones", "config": {}}, "beta_regularizer": null, "gamma_regularizer": null, "beta_constraint": null, "gamma_constraint": null}, "name": "batch_normalization_705", "inbound_nodes": [[["conv1d_816", 0, 0, {}]]]}, {"class_name": "BatchNormalization", "config": {"name": "batch_normalization_715", "trainable": true, "dtype": "float32", "axis": [2], "momentum": 0.99, "epsilon": 0.001, "center": true, "scale": true, "beta_initializer": {"class_name": "Zeros", "config": {}}, "gamma_initializer": {"class_name": "Ones", "config": {}}, "moving_mean_initializer": {"class_name": "Zeros", "config": {}}, "moving_variance_initializer": {"class_name": "Ones", "config": {}}, "beta_regularizer": null, "gamma_regularizer": null, "beta_constraint": null, "gamma_constraint": null}, "name": "batch_normalization_715", "inbound_nodes": [[["conv1d_828", 0, 0, {}]]]}, {"class_name": "BatchNormalization", "config": {"name": "batch_normalization_725", "trainable": true, "dtype": "float32", "axis": [2], "momentum": 0.99, "epsilon": 0.001, "center": true, "scale": true, "beta_initializer": {"class_name": "Zeros", "config": {}}, "gamma_initializer": {"class_name": "Ones", "config": {}}, "moving_mean_initializer": {"class_name": "Zeros", "config": {}}, "moving_variance_initializer": {"class_name": "Ones", "config": {}}, "beta_regularizer": null, "gamma_regularizer": null, "beta_constraint": null, "gamma_constraint": null}, "name": "batch_normalization_725", "inbound_nodes": [[["conv1d_840", 0, 0, {}]]]}, {"class_name": "Activation", "config": {"name": "activation_804", "trainable": true, "dtype": "float32", "activation": "relu"}, "name": "activation_804", "inbound_nodes": [[["batch_normalization_675", 0, 0, {}]]]}, {"class_name": "Activation", "config": {"name": "activation_816", "trainable": true, "dtype": "float32", "activation": "relu"}, "name": "activation_816", "inbound_nodes": [[["batch_normalization_685", 0, 0, {}]]]}, {"class_name": "Activation", "config": {"name": "activation_828", "trainable": true, "dtype": "float32", "activation": "relu"}, "name": "activation_828", "inbound_nodes": [[["batch_normalization_695", 0, 0, {}]]]}, {"class_name": "Activation", "config": {"name": "activation_840", "trainable": true, "dtype": "float32", "activation": "relu"}, "name": "activation_840", "inbound_nodes": [[["batch_normalization_705", 0, 0, {}]]]}, {"class_name": "Activation", "config": {"name": "activation_852", "trainable": true, "dtype": "float32", "activation": "relu"}, "name": "activation_852", "inbound_nodes": [[["batch_normalization_715", 0, 0, {}]]]}, {"class_name": "Activation", "config": {"name": "activation_864", "trainable": true, "dtype": "float32", "activation": "relu"}, "name": "activation_864", "inbound_nodes": [[["batch_normalization_725", 0, 0, {}]]]}, {"class_name": "Conv1D", "config": {"name": "conv1d_781", "trainable": true, "dtype": "float32", "filters": 8, "kernel_size": [3], "strides": [1], "padding": "same", "data_format": "channels_last", "dilation_rate": [1], "groups": 1, "activation": "linear", "use_bias": true, "kernel_initializer": {"class_name": "GlorotUniform", "config": {"seed": null}}, "bias_initializer": {"class_name": "Zeros", "config": {}}, "kernel_regularizer": null, "bias_regularizer": null, "activity_regularizer": null, "kernel_constraint": null, "bias_constraint": null}, "name": "conv1d_781", "inbound_nodes": [[["activation_804", 0, 0, {}]]]}, {"class_name": "Conv1D", "config": {"name": "conv1d_793", "trainable": true, "dtype": "float32", "filters": 8, "kernel_size": [3], "strides": [1], "padding": "same", "data_format": "channels_last", "dilation_rate": [1], "groups": 1, "activation": "linear", "use_bias": true, "kernel_initializer": {"class_name": "GlorotUniform", "config": {"seed": null}}, "bias_initializer": {"class_name": "Zeros", "config": {}}, "kernel_regularizer": null, "bias_regularizer": null, "activity_regularizer": null, "kernel_constraint": null, "bias_constraint": null}, "name": "conv1d_793", "inbound_nodes": [[["activation_816", 0, 0, {}]]]}, {"class_name": "Conv1D", "config": {"name": "conv1d_805", "trainable": true, "dtype": "float32", "filters": 8, "kernel_size": [3], "strides": [1], "padding": "same", "data_format": "channels_last", "dilation_rate": [1], "groups": 1, "activation": "linear", "use_bias": true, "kernel_initializer": {"class_name": "GlorotUniform", "config": {"seed": null}}, "bias_initializer": {"class_name": "Zeros", "config": {}}, "kernel_regularizer": null, "bias_regularizer": null, "activity_regularizer": null, "kernel_constraint": null, "bias_constraint": null}, "name": "conv1d_805", "inbound_nodes": [[["activation_828", 0, 0, {}]]]}, {"class_name": "Conv1D", "config": {"name": "conv1d_817", "trainable": true, "dtype": "float32", "filters": 8, "kernel_size": [3], "strides": [1], "padding": "same", "data_format": "channels_last", "dilation_rate": [1], "groups": 1, "activation": "linear", "use_bias": true, "kernel_initializer": {"class_name": "GlorotUniform", "config": {"seed": null}}, "bias_initializer": {"class_name": "Zeros", "config": {}}, "kernel_regularizer": null, "bias_regularizer": null, "activity_regularizer": null, "kernel_constraint": null, "bias_constraint": null}, "name": "conv1d_817", "inbound_nodes": [[["activation_840", 0, 0, {}]]]}, {"class_name": "Conv1D", "config": {"name": "conv1d_829", "trainable": true, "dtype": "float32", "filters": 8, "kernel_size": [3], "strides": [1], "padding": "same", "data_format": "channels_last", "dilation_rate": [1], "groups": 1, "activation": "linear", "use_bias": true, "kernel_initializer": {"class_name": "GlorotUniform", "config": {"seed": null}}, "bias_initializer": {"class_name": "Zeros", "config": {}}, "kernel_regularizer": null, "bias_regularizer": null, "activity_regularizer": null, "kernel_constraint": null, "bias_constraint": null}, "name": "conv1d_829", "inbound_nodes": [[["activation_852", 0, 0, {}]]]}, {"class_name": "Conv1D", "config": {"name": "conv1d_841", "trainable": true, "dtype": "float32", "filters": 8, "kernel_size": [3], "strides": [1], "padding": "same", "data_format": "channels_last", "dilation_rate": [1], "groups": 1, "activation": "linear", "use_bias": true, "kernel_initializer": {"class_name": "GlorotUniform", "config": {"seed": null}}, "bias_initializer": {"class_name": "Zeros", "config": {}}, "kernel_regularizer": null, "bias_regularizer": null, "activity_regularizer": null, "kernel_constraint": null, "bias_constraint": null}, "name": "conv1d_841", "inbound_nodes": [[["activation_864", 0, 0, {}]]]}, {"class_name": "BatchNormalization", "config": {"name": "batch_normalization_676", "trainable": true, "dtype": "float32", "axis": [2], "momentum": 0.99, "epsilon": 0.001, "center": true, "scale": true, "beta_initializer": {"class_name": "Zeros", "config": {}}, "gamma_initializer": {"class_name": "Ones", "config": {}}, "moving_mean_initializer": {"class_name": "Zeros", "config": {}}, "moving_variance_initializer": {"class_name": "Ones", "config": {}}, "beta_regularizer": null, "gamma_regularizer": null, "beta_constraint": null, "gamma_constraint": null}, "name": "batch_normalization_676", "inbound_nodes": [[["conv1d_781", 0, 0, {}]]]}, {"class_name": "BatchNormalization", "config": {"name": "batch_normalization_686", "trainable": true, "dtype": "float32", "axis": [2], "momentum": 0.99, "epsilon": 0.001, "center": true, "scale": true, "beta_initializer": {"class_name": "Zeros", "config": {}}, "gamma_initializer": {"class_name": "Ones", "config": {}}, "moving_mean_initializer": {"class_name": "Zeros", "config": {}}, "moving_variance_initializer": {"class_name": "Ones", "config": {}}, "beta_regularizer": null, "gamma_regularizer": null, "beta_constraint": null, "gamma_constraint": null}, "name": "batch_normalization_686", "inbound_nodes": [[["conv1d_793", 0, 0, {}]]]}, {"class_name": "BatchNormalization", "config": {"name": "batch_normalization_696", "trainable": true, "dtype": "float32", "axis": [2], "momentum": 0.99, "epsilon": 0.001, "center": true, "scale": true, "beta_initializer": {"class_name": "Zeros", "config": {}}, "gamma_initializer": {"class_name": "Ones", "config": {}}, "moving_mean_initializer": {"class_name": "Zeros", "config": {}}, "moving_variance_initializer": {"class_name": "Ones", "config": {}}, "beta_regularizer": null, "gamma_regularizer": null, "beta_constraint": null, "gamma_constraint": null}, "name": "batch_normalization_696", "inbound_nodes": [[["conv1d_805", 0, 0, {}]]]}, {"class_name": "BatchNormalization", "config": {"name": "batch_normalization_706", "trainable": true, "dtype": "float32", "axis": [2], "momentum": 0.99, "epsilon": 0.001, "center": true, "scale": true, "beta_initializer": {"class_name": "Zeros", "config": {}}, "gamma_initializer": {"class_name": "Ones", "config": {}}, "moving_mean_initializer": {"class_name": "Zeros", "config": {}}, "moving_variance_initializer": {"class_name": "Ones", "config": {}}, "beta_regularizer": null, "gamma_regularizer": null, "beta_constraint": null, "gamma_constraint": null}, "name": "batch_normalization_706", "inbound_nodes": [[["conv1d_817", 0, 0, {}]]]}, {"class_name": "BatchNormalization", "config": {"name": "batch_normalization_716", "trainable": true, "dtype": "float32", "axis": [2], "momentum": 0.99, "epsilon": 0.001, "center": true, "scale": true, "beta_initializer": {"class_name": "Zeros", "config": {}}, "gamma_initializer": {"class_name": "Ones", "config": {}}, "moving_mean_initializer": {"class_name": "Zeros", "config": {}}, "moving_variance_initializer": {"class_name": "Ones", "config": {}}, "beta_regularizer": null, "gamma_regularizer": null, "beta_constraint": null, "gamma_constraint": null}, "name": "batch_normalization_716", "inbound_nodes": [[["conv1d_829", 0, 0, {}]]]}, {"class_name": "BatchNormalization", "config": {"name": "batch_normalization_726", "trainable": true, "dtype": "float32", "axis": [2], "momentum": 0.99, "epsilon": 0.001, "center": true, "scale": true, "beta_initializer": {"class_name": "Zeros", "config": {}}, "gamma_initializer": {"class_name": "Ones", "config": {}}, "moving_mean_initializer": {"class_name": "Zeros", "config": {}}, "moving_variance_initializer": {"class_name": "Ones", "config": {}}, "beta_regularizer": null, "gamma_regularizer": null, "beta_constraint": null, "gamma_constraint": null}, "name": "batch_normalization_726", "inbound_nodes": [[["conv1d_841", 0, 0, {}]]]}, {"class_name": "Activation", "config": {"name": "activation_805", "trainable": true, "dtype": "float32", "activation": "relu"}, "name": "activation_805", "inbound_nodes": [[["batch_normalization_676", 0, 0, {}]]]}, {"class_name": "Activation", "config": {"name": "activation_817", "trainable": true, "dtype": "float32", "activation": "relu"}, "name": "activation_817", "inbound_nodes": [[["batch_normalization_686", 0, 0, {}]]]}, {"class_name": "Activation", "config": {"name": "activation_829", "trainable": true, "dtype": "float32", "activation": "relu"}, "name": "activation_829", "inbound_nodes": [[["batch_normalization_696", 0, 0, {}]]]}, {"class_name": "Activation", "config": {"name": "activation_841", "trainable": true, "dtype": "float32", "activation": "relu"}, "name": "activation_841", "inbound_nodes": [[["batch_normalization_706", 0, 0, {}]]]}, {"class_name": "Activation", "config": {"name": "activation_853", "trainable": true, "dtype": "float32", "activation": "relu"}, "name": "activation_853", "inbound_nodes": [[["batch_normalization_716", 0, 0, {}]]]}, {"class_name": "Activation", "config": {"name": "activation_865", "trainable": true, "dtype": "float32", "activation": "relu"}, "name": "activation_865", "inbound_nodes": [[["batch_normalization_726", 0, 0, {}]]]}, {"class_name": "Conv1D", "config": {"name": "conv1d_782", "trainable": true, "dtype": "float32", "filters": 32, "kernel_size": [1], "strides": [1], "padding": "valid", "data_format": "channels_last", "dilation_rate": [1], "groups": 1, "activation": "linear", "use_bias": true, "kernel_initializer": {"class_name": "GlorotUniform", "config": {"seed": null}}, "bias_initializer": {"class_name": "Zeros", "config": {}}, "kernel_regularizer": null, "bias_regularizer": null, "activity_regularizer": null, "kernel_constraint": null, "bias_constraint": null}, "name": "conv1d_782", "inbound_nodes": [[["activation_805", 0, 0, {}]]]}, {"class_name": "Conv1D", "config": {"name": "conv1d_794", "trainable": true, "dtype": "float32", "filters": 32, "kernel_size": [1], "strides": [1], "padding": "valid", "data_format": "channels_last", "dilation_rate": [1], "groups": 1, "activation": "linear", "use_bias": true, "kernel_initializer": {"class_name": "GlorotUniform", "config": {"seed": null}}, "bias_initializer": {"class_name": "Zeros", "config": {}}, "kernel_regularizer": null, "bias_regularizer": null, "activity_regularizer": null, "kernel_constraint": null, "bias_constraint": null}, "name": "conv1d_794", "inbound_nodes": [[["activation_817", 0, 0, {}]]]}, {"class_name": "Conv1D", "config": {"name": "conv1d_806", "trainable": true, "dtype": "float32", "filters": 32, "kernel_size": [1], "strides": [1], "padding": "valid", "data_format": "channels_last", "dilation_rate": [1], "groups": 1, "activation": "linear", "use_bias": true, "kernel_initializer": {"class_name": "GlorotUniform", "config": {"seed": null}}, "bias_initializer": {"class_name": "Zeros", "config": {}}, "kernel_regularizer": null, "bias_regularizer": null, "activity_regularizer": null, "kernel_constraint": null, "bias_constraint": null}, "name": "conv1d_806", "inbound_nodes": [[["activation_829", 0, 0, {}]]]}, {"class_name": "Conv1D", "config": {"name": "conv1d_818", "trainable": true, "dtype": "float32", "filters": 32, "kernel_size": [1], "strides": [1], "padding": "valid", "data_format": "channels_last", "dilation_rate": [1], "groups": 1, "activation": "linear", "use_bias": true, "kernel_initializer": {"class_name": "GlorotUniform", "config": {"seed": null}}, "bias_initializer": {"class_name": "Zeros", "config": {}}, "kernel_regularizer": null, "bias_regularizer": null, "activity_regularizer": null, "kernel_constraint": null, "bias_constraint": null}, "name": "conv1d_818", "inbound_nodes": [[["activation_841", 0, 0, {}]]]}, {"class_name": "Conv1D", "config": {"name": "conv1d_830", "trainable": true, "dtype": "float32", "filters": 32, "kernel_size": [1], "strides": [1], "padding": "valid", "data_format": "channels_last", "dilation_rate": [1], "groups": 1, "activation": "linear", "use_bias": true, "kernel_initializer": {"class_name": "GlorotUniform", "config": {"seed": null}}, "bias_initializer": {"class_name": "Zeros", "config": {}}, "kernel_regularizer": null, "bias_regularizer": null, "activity_regularizer": null, "kernel_constraint": null, "bias_constraint": null}, "name": "conv1d_830", "inbound_nodes": [[["activation_853", 0, 0, {}]]]}, {"class_name": "Conv1D", "config": {"name": "conv1d_842", "trainable": true, "dtype": "float32", "filters": 32, "kernel_size": [1], "strides": [1], "padding": "valid", "data_format": "channels_last", "dilation_rate": [1], "groups": 1, "activation": "linear", "use_bias": true, "kernel_initializer": {"class_name": "GlorotUniform", "config": {"seed": null}}, "bias_initializer": {"class_name": "Zeros", "config": {}}, "kernel_regularizer": null, "bias_regularizer": null, "activity_regularizer": null, "kernel_constraint": null, "bias_constraint": null}, "name": "conv1d_842", "inbound_nodes": [[["activation_865", 0, 0, {}]]]}, {"class_name": "BatchNormalization", "config": {"name": "batch_normalization_677", "trainable": true, "dtype": "float32", "axis": [2], "momentum": 0.99, "epsilon": 0.001, "center": true, "scale": true, "beta_initializer": {"class_name": "Zeros", "config": {}}, "gamma_initializer": {"class_name": "Ones", "config": {}}, "moving_mean_initializer": {"class_name": "Zeros", "config": {}}, "moving_variance_initializer": {"class_name": "Ones", "config": {}}, "beta_regularizer": null, "gamma_regularizer": null, "beta_constraint": null, "gamma_constraint": null}, "name": "batch_normalization_677", "inbound_nodes": [[["conv1d_782", 0, 0, {}]]]}, {"class_name": "BatchNormalization", "config": {"name": "batch_normalization_687", "trainable": true, "dtype": "float32", "axis": [2], "momentum": 0.99, "epsilon": 0.001, "center": true, "scale": true, "beta_initializer": {"class_name": "Zeros", "config": {}}, "gamma_initializer": {"class_name": "Ones", "config": {}}, "moving_mean_initializer": {"class_name": "Zeros", "config": {}}, "moving_variance_initializer": {"class_name": "Ones", "config": {}}, "beta_regularizer": null, "gamma_regularizer": null, "beta_constraint": null, "gamma_constraint": null}, "name": "batch_normalization_687", "inbound_nodes": [[["conv1d_794", 0, 0, {}]]]}, {"class_name": "BatchNormalization", "config": {"name": "batch_normalization_697", "trainable": true, "dtype": "float32", "axis": [2], "momentum": 0.99, "epsilon": 0.001, "center": true, "scale": true, "beta_initializer": {"class_name": "Zeros", "config": {}}, "gamma_initializer": {"class_name": "Ones", "config": {}}, "moving_mean_initializer": {"class_name": "Zeros", "config": {}}, "moving_variance_initializer": {"class_name": "Ones", "config": {}}, "beta_regularizer": null, "gamma_regularizer": null, "beta_constraint": null, "gamma_constraint": null}, "name": "batch_normalization_697", "inbound_nodes": [[["conv1d_806", 0, 0, {}]]]}, {"class_name": "BatchNormalization", "config": {"name": "batch_normalization_707", "trainable": true, "dtype": "float32", "axis": [2], "momentum": 0.99, "epsilon": 0.001, "center": true, "scale": true, "beta_initializer": {"class_name": "Zeros", "config": {}}, "gamma_initializer": {"class_name": "Ones", "config": {}}, "moving_mean_initializer": {"class_name": "Zeros", "config": {}}, "moving_variance_initializer": {"class_name": "Ones", "config": {}}, "beta_regularizer": null, "gamma_regularizer": null, "beta_constraint": null, "gamma_constraint": null}, "name": "batch_normalization_707", "inbound_nodes": [[["conv1d_818", 0, 0, {}]]]}, {"class_name": "BatchNormalization", "config": {"name": "batch_normalization_717", "trainable": true, "dtype": "float32", "axis": [2], "momentum": 0.99, "epsilon": 0.001, "center": true, "scale": true, "beta_initializer": {"class_name": "Zeros", "config": {}}, "gamma_initializer": {"class_name": "Ones", "config": {}}, "moving_mean_initializer": {"class_name": "Zeros", "config": {}}, "moving_variance_initializer": {"class_name": "Ones", "config": {}}, "beta_regularizer": null, "gamma_regularizer": null, "beta_constraint": null, "gamma_constraint": null}, "name": "batch_normalization_717", "inbound_nodes": [[["conv1d_830", 0, 0, {}]]]}, {"class_name": "BatchNormalization", "config": {"name": "batch_normalization_727", "trainable": true, "dtype": "float32", "axis": [2], "momentum": 0.99, "epsilon": 0.001, "center": true, "scale": true, "beta_initializer": {"class_name": "Zeros", "config": {}}, "gamma_initializer": {"class_name": "Ones", "config": {}}, "moving_mean_initializer": {"class_name": "Zeros", "config": {}}, "moving_variance_initializer": {"class_name": "Ones", "config": {}}, "beta_regularizer": null, "gamma_regularizer": null, "beta_constraint": null, "gamma_constraint": null}, "name": "batch_normalization_727", "inbound_nodes": [[["conv1d_842", 0, 0, {}]]]}, {"class_name": "Activation", "config": {"name": "activation_806", "trainable": true, "dtype": "float32", "activation": "relu"}, "name": "activation_806", "inbound_nodes": [[["batch_normalization_677", 0, 0, {}]]]}, {"class_name": "Activation", "config": {"name": "activation_818", "trainable": true, "dtype": "float32", "activation": "relu"}, "name": "activation_818", "inbound_nodes": [[["batch_normalization_687", 0, 0, {}]]]}, {"class_name": "Activation", "config": {"name": "activation_830", "trainable": true, "dtype": "float32", "activation": "relu"}, "name": "activation_830", "inbound_nodes": [[["batch_normalization_697", 0, 0, {}]]]}, {"class_name": "Activation", "config": {"name": "activation_842", "trainable": true, "dtype": "float32", "activation": "relu"}, "name": "activation_842", "inbound_nodes": [[["batch_normalization_707", 0, 0, {}]]]}, {"class_name": "Activation", "config": {"name": "activation_854", "trainable": true, "dtype": "float32", "activation": "relu"}, "name": "activation_854", "inbound_nodes": [[["batch_normalization_717", 0, 0, {}]]]}, {"class_name": "Activation", "config": {"name": "activation_866", "trainable": true, "dtype": "float32", "activation": "relu"}, "name": "activation_866", "inbound_nodes": [[["batch_normalization_727", 0, 0, {}]]]}, {"class_name": "InputLayer", "config": {"batch_input_shape": [null, 500], "dtype": "float32", "sparse": false, "ragged": false, "name": "input_9"}, "name": "input_9", "inbound_nodes": []}, {"class_name": "Add", "config": {"name": "add_201", "trainable": true, "dtype": "float32"}, "name": "add_201", "inbound_nodes": [[["activation_806", 0, 0, {}], ["activation_803", 0, 0, {}]]]}, {"class_name": "Add", "config": {"name": "add_204", "trainable": true, "dtype": "float32"}, "name": "add_204", "inbound_nodes": [[["activation_818", 0, 0, {}], ["activation_815", 0, 0, {}]]]}, {"class_name": "Add", "config": {"name": "add_207", "trainable": true, "dtype": "float32"}, "name": "add_207", "inbound_nodes": [[["activation_830", 0, 0, {}], ["activation_827", 0, 0, {}]]]}, {"class_name": "Add", "config": {"name": "add_210", "trainable": true, "dtype": "float32"}, "name": "add_210", "inbound_nodes": [[["activation_842", 0, 0, {}], ["activation_839", 0, 0, {}]]]}, {"class_name": "Add", "config": {"name": "add_213", "trainable": true, "dtype": "float32"}, "name": "add_213", "inbound_nodes": [[["activation_854", 0, 0, {}], ["activation_851", 0, 0, {}]]]}, {"class_name": "Add", "config": {"name": "add_216", "trainable": true, "dtype": "float32"}, "name": "add_216", "inbound_nodes": [[["activation_866", 0, 0, {}], ["activation_863", 0, 0, {}]]]}, {"class_name": "Reshape", "config": {"name": "reshape_12", "trainable": true, "batch_input_shape": [null, 500], "dtype": "float32", "target_shape": [500, 1]}, "name": "reshape_12", "inbound_nodes": [[["input_9", 0, 0, {}]]]}, {"class_name": "Activation", "config": {"name": "activation_807", "trainable": true, "dtype": "float32", "activation": "relu"}, "name": "activation_807", "inbound_nodes": [[["add_201", 0, 0, {}]]]}, {"class_name": "Activation", "config": {"name": "activation_819", "trainable": true, "dtype": "float32", "activation": "relu"}, "name": "activation_819", "inbound_nodes": [[["add_204", 0, 0, {}]]]}, {"class_name": "Activation", "config": {"name": "activation_831", "trainable": true, "dtype": "float32", "activation": "relu"}, "name": "activation_831", "inbound_nodes": [[["add_207", 0, 0, {}]]]}, {"class_name": "Activation", "config": {"name": "activation_843", "trainable": true, "dtype": "float32", "activation": "relu"}, "name": "activation_843", "inbound_nodes": [[["add_210", 0, 0, {}]]]}, {"class_name": "Activation", "config": {"name": "activation_855", "trainable": true, "dtype": "float32", "activation": "relu"}, "name": "activation_855", "inbound_nodes": [[["add_213", 0, 0, {}]]]}, {"class_name": "Activation", "config": {"name": "activation_867", "trainable": true, "dtype": "float32", "activation": "relu"}, "name": "activation_867", "inbound_nodes": [[["add_216", 0, 0, {}]]]}, {"class_name": "Conv1D", "config": {"name": "conv1d_760", "trainable": true, "batch_input_shape": [null, 500, 1], "dtype": "float32", "filters": 8, "kernel_size": [3], "strides": [1], "padding": "valid", "data_format": "channels_last", "dilation_rate": [1], "groups": 1, "activation": "relu", "use_bias": true, "kernel_initializer": {"class_name": "GlorotUniform", "config": {"seed": null}}, "bias_initializer": {"class_name": "Zeros", "config": {}}, "kernel_regularizer": null, "bias_regularizer": null, "activity_regularizer": null, "kernel_constraint": null, "bias_constraint": null}, "name": "conv1d_760", "inbound_nodes": [[["reshape_12", 0, 0, {}]]]}, {"class_name": "Conv1D", "config": {"name": "conv1d_783", "trainable": true, "dtype": "float32", "filters": 8, "kernel_size": [1], "strides": [1], "padding": "valid", "data_format": "channels_last", "dilation_rate": [1], "groups": 1, "activation": "linear", "use_bias": true, "kernel_initializer": {"class_name": "GlorotUniform", "config": {"seed": null}}, "bias_initializer": {"class_name": "Zeros", "config": {}}, "kernel_regularizer": null, "bias_regularizer": null, "activity_regularizer": null, "kernel_constraint": null, "bias_constraint": null}, "name": "conv1d_783", "inbound_nodes": [[["activation_807", 0, 0, {}]]]}, {"class_name": "Conv1D", "config": {"name": "conv1d_795", "trainable": true, "dtype": "float32", "filters": 8, "kernel_size": [1], "strides": [1], "padding": "valid", "data_format": "channels_last", "dilation_rate": [1], "groups": 1, "activation": "linear", "use_bias": true, "kernel_initializer": {"class_name": "GlorotUniform", "config": {"seed": null}}, "bias_initializer": {"class_name": "Zeros", "config": {}}, "kernel_regularizer": null, "bias_regularizer": null, "activity_regularizer": null, "kernel_constraint": null, "bias_constraint": null}, "name": "conv1d_795", "inbound_nodes": [[["activation_819", 0, 0, {}]]]}, {"class_name": "Conv1D", "config": {"name": "conv1d_807", "trainable": true, "dtype": "float32", "filters": 8, "kernel_size": [1], "strides": [1], "padding": "valid", "data_format": "channels_last", "dilation_rate": [1], "groups": 1, "activation": "linear", "use_bias": true, "kernel_initializer": {"class_name": "GlorotUniform", "config": {"seed": null}}, "bias_initializer": {"class_name": "Zeros", "config": {}}, "kernel_regularizer": null, "bias_regularizer": null, "activity_regularizer": null, "kernel_constraint": null, "bias_constraint": null}, "name": "conv1d_807", "inbound_nodes": [[["activation_831", 0, 0, {}]]]}, {"class_name": "Conv1D", "config": {"name": "conv1d_819", "trainable": true, "dtype": "float32", "filters": 8, "kernel_size": [1], "strides": [1], "padding": "valid", "data_format": "channels_last", "dilation_rate": [1], "groups": 1, "activation": "linear", "use_bias": true, "kernel_initializer": {"class_name": "GlorotUniform", "config": {"seed": null}}, "bias_initializer": {"class_name": "Zeros", "config": {}}, "kernel_regularizer": null, "bias_regularizer": null, "activity_regularizer": null, "kernel_constraint": null, "bias_constraint": null}, "name": "conv1d_819", "inbound_nodes": [[["activation_843", 0, 0, {}]]]}, {"class_name": "Conv1D", "config": {"name": "conv1d_831", "trainable": true, "dtype": "float32", "filters": 8, "kernel_size": [1], "strides": [1], "padding": "valid", "data_format": "channels_last", "dilation_rate": [1], "groups": 1, "activation": "linear", "use_bias": true, "kernel_initializer": {"class_name": "GlorotUniform", "config": {"seed": null}}, "bias_initializer": {"class_name": "Zeros", "config": {}}, "kernel_regularizer": null, "bias_regularizer": null, "activity_regularizer": null, "kernel_constraint": null, "bias_constraint": null}, "name": "conv1d_831", "inbound_nodes": [[["activation_855", 0, 0, {}]]]}, {"class_name": "Conv1D", "config": {"name": "conv1d_843", "trainable": true, "dtype": "float32", "filters": 8, "kernel_size": [1], "strides": [1], "padding": "valid", "data_format": "channels_last", "dilation_rate": [1], "groups": 1, "activation": "linear", "use_bias": true, "kernel_initializer": {"class_name": "GlorotUniform", "config": {"seed": null}}, "bias_initializer": {"class_name": "Zeros", "config": {}}, "kernel_regularizer": null, "bias_regularizer": null, "activity_regularizer": null, "kernel_constraint": null, "bias_constraint": null}, "name": "conv1d_843", "inbound_nodes": [[["activation_867", 0, 0, {}]]]}, {"class_name": "Conv1D", "config": {"name": "conv1d_761", "trainable": true, "dtype": "float32", "filters": 8, "kernel_size": [3], "strides": [1], "padding": "valid", "data_format": "channels_last", "dilation_rate": [1], "groups": 1, "activation": "relu", "use_bias": true, "kernel_initializer": {"class_name": "GlorotUniform", "config": {"seed": null}}, "bias_initializer": {"class_name": "Zeros", "config": {}}, "kernel_regularizer": null, "bias_regularizer": null, "activity_regularizer": null, "kernel_constraint": null, "bias_constraint": null}, "name": "conv1d_761", "inbound_nodes": [[["conv1d_760", 0, 0, {}]]]}, {"class_name": "BatchNormalization", "config": {"name": "batch_normalization_678", "trainable": true, "dtype": "float32", "axis": [2], "momentum": 0.99, "epsilon": 0.001, "center": true, "scale": true, "beta_initializer": {"class_name": "Zeros", "config": {}}, "gamma_initializer": {"class_name": "Ones", "config": {}}, "moving_mean_initializer": {"class_name": "Zeros", "config": {}}, "moving_variance_initializer": {"class_name": "Ones", "config": {}}, "beta_regularizer": null, "gamma_regularizer": null, "beta_constraint": null, "gamma_constraint": null}, "name": "batch_normalization_678", "inbound_nodes": [[["conv1d_783", 0, 0, {}]]]}, {"class_name": "BatchNormalization", "config": {"name": "batch_normalization_688", "trainable": true, "dtype": "float32", "axis": [2], "momentum": 0.99, "epsilon": 0.001, "center": true, "scale": true, "beta_initializer": {"class_name": "Zeros", "config": {}}, "gamma_initializer": {"class_name": "Ones", "config": {}}, "moving_mean_initializer": {"class_name": "Zeros", "config": {}}, "moving_variance_initializer": {"class_name": "Ones", "config": {}}, "beta_regularizer": null, "gamma_regularizer": null, "beta_constraint": null, "gamma_constraint": null}, "name": "batch_normalization_688", "inbound_nodes": [[["conv1d_795", 0, 0, {}]]]}, {"class_name": "BatchNormalization", "config": {"name": "batch_normalization_698", "trainable": true, "dtype": "float32", "axis": [2], "momentum": 0.99, "epsilon": 0.001, "center": true, "scale": true, "beta_initializer": {"class_name": "Zeros", "config": {}}, "gamma_initializer": {"class_name": "Ones", "config": {}}, "moving_mean_initializer": {"class_name": "Zeros", "config": {}}, "moving_variance_initializer": {"class_name": "Ones", "config": {}}, "beta_regularizer": null, "gamma_regularizer": null, "beta_constraint": null, "gamma_constraint": null}, "name": "batch_normalization_698", "inbound_nodes": [[["conv1d_807", 0, 0, {}]]]}, {"class_name": "BatchNormalization", "config": {"name": "batch_normalization_708", "trainable": true, "dtype": "float32", "axis": [2], "momentum": 0.99, "epsilon": 0.001, "center": true, "scale": true, "beta_initializer": {"class_name": "Zeros", "config": {}}, "gamma_initializer": {"class_name": "Ones", "config": {}}, "moving_mean_initializer": {"class_name": "Zeros", "config": {}}, "moving_variance_initializer": {"class_name": "Ones", "config": {}}, "beta_regularizer": null, "gamma_regularizer": null, "beta_constraint": null, "gamma_constraint": null}, "name": "batch_normalization_708", "inbound_nodes": [[["conv1d_819", 0, 0, {}]]]}, {"class_name": "BatchNormalization", "config": {"name": "batch_normalization_718", "trainable": true, "dtype": "float32", "axis": [2], "momentum": 0.99, "epsilon": 0.001, "center": true, "scale": true, "beta_initializer": {"class_name": "Zeros", "config": {}}, "gamma_initializer": {"class_name": "Ones", "config": {}}, "moving_mean_initializer": {"class_name": "Zeros", "config": {}}, "moving_variance_initializer": {"class_name": "Ones", "config": {}}, "beta_regularizer": null, "gamma_regularizer": null, "beta_constraint": null, "gamma_constraint": null}, "name": "batch_normalization_718", "inbound_nodes": [[["conv1d_831", 0, 0, {}]]]}, {"class_name": "BatchNormalization", "config": {"name": "batch_normalization_728", "trainable": true, "dtype": "float32", "axis": [2], "momentum": 0.99, "epsilon": 0.001, "center": true, "scale": true, "beta_initializer": {"class_name": "Zeros", "config": {}}, "gamma_initializer": {"class_name": "Ones", "config": {}}, "moving_mean_initializer": {"class_name": "Zeros", "config": {}}, "moving_variance_initializer": {"class_name": "Ones", "config": {}}, "beta_regularizer": null, "gamma_regularizer": null, "beta_constraint": null, "gamma_constraint": null}, "name": "batch_normalization_728", "inbound_nodes": [[["conv1d_843", 0, 0, {}]]]}, {"class_name": "MaxPooling1D", "config": {"name": "max_pooling1d_12", "trainable": true, "dtype": "float32", "strides": [2], "pool_size": [2], "padding": "valid", "data_format": "channels_last"}, "name": "max_pooling1d_12", "inbound_nodes": [[["conv1d_761", 0, 0, {}]]]}, {"class_name": "Activation", "config": {"name": "activation_808", "trainable": true, "dtype": "float32", "activation": "relu"}, "name": "activation_808", "inbound_nodes": [[["batch_normalization_678", 0, 0, {}]]]}, {"class_name": "Activation", "config": {"name": "activation_820", "trainable": true, "dtype": "float32", "activation": "relu"}, "name": "activation_820", "inbound_nodes": [[["batch_normalization_688", 0, 0, {}]]]}, {"class_name": "Activation", "config": {"name": "activation_832", "trainable": true, "dtype": "float32", "activation": "relu"}, "name": "activation_832", "inbound_nodes": [[["batch_normalization_698", 0, 0, {}]]]}, {"class_name": "Activation", "config": {"name": "activation_844", "trainable": true, "dtype": "float32", "activation": "relu"}, "name": "activation_844", "inbound_nodes": [[["batch_normalization_708", 0, 0, {}]]]}, {"class_name": "Activation", "config": {"name": "activation_856", "trainable": true, "dtype": "float32", "activation": "relu"}, "name": "activation_856", "inbound_nodes": [[["batch_normalization_718", 0, 0, {}]]]}, {"class_name": "Activation", "config": {"name": "activation_868", "trainable": true, "dtype": "float32", "activation": "relu"}, "name": "activation_868", "inbound_nodes": [[["batch_normalization_728", 0, 0, {}]]]}, {"class_name": "BatchNormalization", "config": {"name": "batch_normalization_668", "trainable": true, "dtype": "float32", "axis": [2], "momentum": 0.99, "epsilon": 0.001, "center": true, "scale": true, "beta_initializer": {"class_name": "Zeros", "config": {}}, "gamma_initializer": {"class_name": "Ones", "config": {}}, "moving_mean_initializer": {"class_name": "Zeros", "config": {}}, "moving_variance_initializer": {"class_name": "Ones", "config": {}}, "beta_regularizer": null, "gamma_regularizer": null, "beta_constraint": null, "gamma_constraint": null}, "name": "batch_normalization_668", "inbound_nodes": [[["max_pooling1d_12", 0, 0, {}]]]}, {"class_name": "Conv1D", "config": {"name": "conv1d_784", "trainable": true, "dtype": "float32", "filters": 8, "kernel_size": [3], "strides": [1], "padding": "same", "data_format": "channels_last", "dilation_rate": [1], "groups": 1, "activation": "linear", "use_bias": true, "kernel_initializer": {"class_name": "GlorotUniform", "config": {"seed": null}}, "bias_initializer": {"class_name": "Zeros", "config": {}}, "kernel_regularizer": null, "bias_regularizer": null, "activity_regularizer": null, "kernel_constraint": null, "bias_constraint": null}, "name": "conv1d_784", "inbound_nodes": [[["activation_808", 0, 0, {}]]]}, {"class_name": "Conv1D", "config": {"name": "conv1d_796", "trainable": true, "dtype": "float32", "filters": 8, "kernel_size": [3], "strides": [1], "padding": "same", "data_format": "channels_last", "dilation_rate": [1], "groups": 1, "activation": "linear", "use_bias": true, "kernel_initializer": {"class_name": "GlorotUniform", "config": {"seed": null}}, "bias_initializer": {"class_name": "Zeros", "config": {}}, "kernel_regularizer": null, "bias_regularizer": null, "activity_regularizer": null, "kernel_constraint": null, "bias_constraint": null}, "name": "conv1d_796", "inbound_nodes": [[["activation_820", 0, 0, {}]]]}, {"class_name": "Conv1D", "config": {"name": "conv1d_808", "trainable": true, "dtype": "float32", "filters": 8, "kernel_size": [3], "strides": [1], "padding": "same", "data_format": "channels_last", "dilation_rate": [1], "groups": 1, "activation": "linear", "use_bias": true, "kernel_initializer": {"class_name": "GlorotUniform", "config": {"seed": null}}, "bias_initializer": {"class_name": "Zeros", "config": {}}, "kernel_regularizer": null, "bias_regularizer": null, "activity_regularizer": null, "kernel_constraint": null, "bias_constraint": null}, "name": "conv1d_808", "inbound_nodes": [[["activation_832", 0, 0, {}]]]}, {"class_name": "Conv1D", "config": {"name": "conv1d_820", "trainable": true, "dtype": "float32", "filters": 8, "kernel_size": [3], "strides": [1], "padding": "same", "data_format": "channels_last", "dilation_rate": [1], "groups": 1, "activation": "linear", "use_bias": true, "kernel_initializer": {"class_name": "GlorotUniform", "config": {"seed": null}}, "bias_initializer": {"class_name": "Zeros", "config": {}}, "kernel_regularizer": null, "bias_regularizer": null, "activity_regularizer": null, "kernel_constraint": null, "bias_constraint": null}, "name": "conv1d_820", "inbound_nodes": [[["activation_844", 0, 0, {}]]]}, {"class_name": "Conv1D", "config": {"name": "conv1d_832", "trainable": true, "dtype": "float32", "filters": 8, "kernel_size": [3], "strides": [1], "padding": "same", "data_format": "channels_last", "dilation_rate": [1], "groups": 1, "activation": "linear", "use_bias": true, "kernel_initializer": {"class_name": "GlorotUniform", "config": {"seed": null}}, "bias_initializer": {"class_name": "Zeros", "config": {}}, "kernel_regularizer": null, "bias_regularizer": null, "activity_regularizer": null, "kernel_constraint": null, "bias_constraint": null}, "name": "conv1d_832", "inbound_nodes": [[["activation_856", 0, 0, {}]]]}, {"class_name": "Conv1D", "config": {"name": "conv1d_844", "trainable": true, "dtype": "float32", "filters": 8, "kernel_size": [3], "strides": [1], "padding": "same", "data_format": "channels_last", "dilation_rate": [1], "groups": 1, "activation": "linear", "use_bias": true, "kernel_initializer": {"class_name": "GlorotUniform", "config": {"seed": null}}, "bias_initializer": {"class_name": "Zeros", "config": {}}, "kernel_regularizer": null, "bias_regularizer": null, "activity_regularizer": null, "kernel_constraint": null, "bias_constraint": null}, "name": "conv1d_844", "inbound_nodes": [[["activation_868", 0, 0, {}]]]}, {"class_name": "Conv1D", "config": {"name": "conv1d_762", "trainable": true, "batch_input_shape": [null, 500, 1], "dtype": "float32", "filters": 16, "kernel_size": [3], "strides": [1], "padding": "valid", "data_format": "channels_last", "dilation_rate": [1], "groups": 1, "activation": "relu", "use_bias": true, "kernel_initializer": {"class_name": "GlorotUniform", "config": {"seed": null}}, "bias_initializer": {"class_name": "Zeros", "config": {}}, "kernel_regularizer": null, "bias_regularizer": null, "activity_regularizer": null, "kernel_constraint": null, "bias_constraint": null}, "name": "conv1d_762", "inbound_nodes": [[["batch_normalization_668", 0, 0, {}]]]}, {"class_name": "BatchNormalization", "config": {"name": "batch_normalization_679", "trainable": true, "dtype": "float32", "axis": [2], "momentum": 0.99, "epsilon": 0.001, "center": true, "scale": true, "beta_initializer": {"class_name": "Zeros", "config": {}}, "gamma_initializer": {"class_name": "Ones", "config": {}}, "moving_mean_initializer": {"class_name": "Zeros", "config": {}}, "moving_variance_initializer": {"class_name": "Ones", "config": {}}, "beta_regularizer": null, "gamma_regularizer": null, "beta_constraint": null, "gamma_constraint": null}, "name": "batch_normalization_679", "inbound_nodes": [[["conv1d_784", 0, 0, {}]]]}, {"class_name": "BatchNormalization", "config": {"name": "batch_normalization_689", "trainable": true, "dtype": "float32", "axis": [2], "momentum": 0.99, "epsilon": 0.001, "center": true, "scale": true, "beta_initializer": {"class_name": "Zeros", "config": {}}, "gamma_initializer": {"class_name": "Ones", "config": {}}, "moving_mean_initializer": {"class_name": "Zeros", "config": {}}, "moving_variance_initializer": {"class_name": "Ones", "config": {}}, "beta_regularizer": null, "gamma_regularizer": null, "beta_constraint": null, "gamma_constraint": null}, "name": "batch_normalization_689", "inbound_nodes": [[["conv1d_796", 0, 0, {}]]]}, {"class_name": "BatchNormalization", "config": {"name": "batch_normalization_699", "trainable": true, "dtype": "float32", "axis": [2], "momentum": 0.99, "epsilon": 0.001, "center": true, "scale": true, "beta_initializer": {"class_name": "Zeros", "config": {}}, "gamma_initializer": {"class_name": "Ones", "config": {}}, "moving_mean_initializer": {"class_name": "Zeros", "config": {}}, "moving_variance_initializer": {"class_name": "Ones", "config": {}}, "beta_regularizer": null, "gamma_regularizer": null, "beta_constraint": null, "gamma_constraint": null}, "name": "batch_normalization_699", "inbound_nodes": [[["conv1d_808", 0, 0, {}]]]}, {"class_name": "BatchNormalization", "config": {"name": "batch_normalization_709", "trainable": true, "dtype": "float32", "axis": [2], "momentum": 0.99, "epsilon": 0.001, "center": true, "scale": true, "beta_initializer": {"class_name": "Zeros", "config": {}}, "gamma_initializer": {"class_name": "Ones", "config": {}}, "moving_mean_initializer": {"class_name": "Zeros", "config": {}}, "moving_variance_initializer": {"class_name": "Ones", "config": {}}, "beta_regularizer": null, "gamma_regularizer": null, "beta_constraint": null, "gamma_constraint": null}, "name": "batch_normalization_709", "inbound_nodes": [[["conv1d_820", 0, 0, {}]]]}, {"class_name": "BatchNormalization", "config": {"name": "batch_normalization_719", "trainable": true, "dtype": "float32", "axis": [2], "momentum": 0.99, "epsilon": 0.001, "center": true, "scale": true, "beta_initializer": {"class_name": "Zeros", "config": {}}, "gamma_initializer": {"class_name": "Ones", "config": {}}, "moving_mean_initializer": {"class_name": "Zeros", "config": {}}, "moving_variance_initializer": {"class_name": "Ones", "config": {}}, "beta_regularizer": null, "gamma_regularizer": null, "beta_constraint": null, "gamma_constraint": null}, "name": "batch_normalization_719", "inbound_nodes": [[["conv1d_832", 0, 0, {}]]]}, {"class_name": "BatchNormalization", "config": {"name": "batch_normalization_729", "trainable": true, "dtype": "float32", "axis": [2], "momentum": 0.99, "epsilon": 0.001, "center": true, "scale": true, "beta_initializer": {"class_name": "Zeros", "config": {}}, "gamma_initializer": {"class_name": "Ones", "config": {}}, "moving_mean_initializer": {"class_name": "Zeros", "config": {}}, "moving_variance_initializer": {"class_name": "Ones", "config": {}}, "beta_regularizer": null, "gamma_regularizer": null, "beta_constraint": null, "gamma_constraint": null}, "name": "batch_normalization_729", "inbound_nodes": [[["conv1d_844", 0, 0, {}]]]}, {"class_name": "Conv1D", "config": {"name": "conv1d_763", "trainable": true, "dtype": "float32", "filters": 16, "kernel_size": [3], "strides": [1], "padding": "valid", "data_format": "channels_last", "dilation_rate": [1], "groups": 1, "activation": "relu", "use_bias": true, "kernel_initializer": {"class_name": "GlorotUniform", "config": {"seed": null}}, "bias_initializer": {"class_name": "Zeros", "config": {}}, "kernel_regularizer": null, "bias_regularizer": null, "activity_regularizer": null, "kernel_constraint": null, "bias_constraint": null}, "name": "conv1d_763", "inbound_nodes": [[["conv1d_762", 0, 0, {}]]]}, {"class_name": "Activation", "config": {"name": "activation_809", "trainable": true, "dtype": "float32", "activation": "relu"}, "name": "activation_809", "inbound_nodes": [[["batch_normalization_679", 0, 0, {}]]]}, {"class_name": "Activation", "config": {"name": "activation_821", "trainable": true, "dtype": "float32", "activation": "relu"}, "name": "activation_821", "inbound_nodes": [[["batch_normalization_689", 0, 0, {}]]]}, {"class_name": "Activation", "config": {"name": "activation_833", "trainable": true, "dtype": "float32", "activation": "relu"}, "name": "activation_833", "inbound_nodes": [[["batch_normalization_699", 0, 0, {}]]]}, {"class_name": "Activation", "config": {"name": "activation_845", "trainable": true, "dtype": "float32", "activation": "relu"}, "name": "activation_845", "inbound_nodes": [[["batch_normalization_709", 0, 0, {}]]]}, {"class_name": "Activation", "config": {"name": "activation_857", "trainable": true, "dtype": "float32", "activation": "relu"}, "name": "activation_857", "inbound_nodes": [[["batch_normalization_719", 0, 0, {}]]]}, {"class_name": "Activation", "config": {"name": "activation_869", "trainable": true, "dtype": "float32", "activation": "relu"}, "name": "activation_869", "inbound_nodes": [[["batch_normalization_729", 0, 0, {}]]]}, {"class_name": "MaxPooling1D", "config": {"name": "max_pooling1d_13", "trainable": true, "dtype": "float32", "strides": [2], "pool_size": [2], "padding": "valid", "data_format": "channels_last"}, "name": "max_pooling1d_13", "inbound_nodes": [[["conv1d_763", 0, 0, {}]]]}, {"class_name": "Conv1D", "config": {"name": "conv1d_785", "trainable": true, "dtype": "float32", "filters": 32, "kernel_size": [1], "strides": [1], "padding": "valid", "data_format": "channels_last", "dilation_rate": [1], "groups": 1, "activation": "linear", "use_bias": true, "kernel_initializer": {"class_name": "GlorotUniform", "config": {"seed": null}}, "bias_initializer": {"class_name": "Zeros", "config": {}}, "kernel_regularizer": null, "bias_regularizer": null, "activity_regularizer": null, "kernel_constraint": null, "bias_constraint": null}, "name": "conv1d_785", "inbound_nodes": [[["activation_809", 0, 0, {}]]]}, {"class_name": "Conv1D", "config": {"name": "conv1d_797", "trainable": true, "dtype": "float32", "filters": 32, "kernel_size": [1], "strides": [1], "padding": "valid", "data_format": "channels_last", "dilation_rate": [1], "groups": 1, "activation": "linear", "use_bias": true, "kernel_initializer": {"class_name": "GlorotUniform", "config": {"seed": null}}, "bias_initializer": {"class_name": "Zeros", "config": {}}, "kernel_regularizer": null, "bias_regularizer": null, "activity_regularizer": null, "kernel_constraint": null, "bias_constraint": null}, "name": "conv1d_797", "inbound_nodes": [[["activation_821", 0, 0, {}]]]}, {"class_name": "Conv1D", "config": {"name": "conv1d_809", "trainable": true, "dtype": "float32", "filters": 32, "kernel_size": [1], "strides": [1], "padding": "valid", "data_format": "channels_last", "dilation_rate": [1], "groups": 1, "activation": "linear", "use_bias": true, "kernel_initializer": {"class_name": "GlorotUniform", "config": {"seed": null}}, "bias_initializer": {"class_name": "Zeros", "config": {}}, "kernel_regularizer": null, "bias_regularizer": null, "activity_regularizer": null, "kernel_constraint": null, "bias_constraint": null}, "name": "conv1d_809", "inbound_nodes": [[["activation_833", 0, 0, {}]]]}, {"class_name": "Conv1D", "config": {"name": "conv1d_821", "trainable": true, "dtype": "float32", "filters": 32, "kernel_size": [1], "strides": [1], "padding": "valid", "data_format": "channels_last", "dilation_rate": [1], "groups": 1, "activation": "linear", "use_bias": true, "kernel_initializer": {"class_name": "GlorotUniform", "config": {"seed": null}}, "bias_initializer": {"class_name": "Zeros", "config": {}}, "kernel_regularizer": null, "bias_regularizer": null, "activity_regularizer": null, "kernel_constraint": null, "bias_constraint": null}, "name": "conv1d_821", "inbound_nodes": [[["activation_845", 0, 0, {}]]]}, {"class_name": "Conv1D", "config": {"name": "conv1d_833", "trainable": true, "dtype": "float32", "filters": 32, "kernel_size": [1], "strides": [1], "padding": "valid", "data_format": "channels_last", "dilation_rate": [1], "groups": 1, "activation": "linear", "use_bias": true, "kernel_initializer": {"class_name": "GlorotUniform", "config": {"seed": null}}, "bias_initializer": {"class_name": "Zeros", "config": {}}, "kernel_regularizer": null, "bias_regularizer": null, "activity_regularizer": null, "kernel_constraint": null, "bias_constraint": null}, "name": "conv1d_833", "inbound_nodes": [[["activation_857", 0, 0, {}]]]}, {"class_name": "Conv1D", "config": {"name": "conv1d_845", "trainable": true, "dtype": "float32", "filters": 32, "kernel_size": [1], "strides": [1], "padding": "valid", "data_format": "channels_last", "dilation_rate": [1], "groups": 1, "activation": "linear", "use_bias": true, "kernel_initializer": {"class_name": "GlorotUniform", "config": {"seed": null}}, "bias_initializer": {"class_name": "Zeros", "config": {}}, "kernel_regularizer": null, "bias_regularizer": null, "activity_regularizer": null, "kernel_constraint": null, "bias_constraint": null}, "name": "conv1d_845", "inbound_nodes": [[["activation_869", 0, 0, {}]]]}, {"class_name": "BatchNormalization", "config": {"name": "batch_normalization_669", "trainable": true, "dtype": "float32", "axis": [2], "momentum": 0.99, "epsilon": 0.001, "center": true, "scale": true, "beta_initializer": {"class_name": "Zeros", "config": {}}, "gamma_initializer": {"class_name": "Ones", "config": {}}, "moving_mean_initializer": {"class_name": "Zeros", "config": {}}, "moving_variance_initializer": {"class_name": "Ones", "config": {}}, "beta_regularizer": null, "gamma_regularizer": null, "beta_constraint": null, "gamma_constraint": null}, "name": "batch_normalization_669", "inbound_nodes": [[["max_pooling1d_13", 0, 0, {}]]]}, {"class_name": "BatchNormalization", "config": {"name": "batch_normalization_680", "trainable": true, "dtype": "float32", "axis": [2], "momentum": 0.99, "epsilon": 0.001, "center": true, "scale": true, "beta_initializer": {"class_name": "Zeros", "config": {}}, "gamma_initializer": {"class_name": "Ones", "config": {}}, "moving_mean_initializer": {"class_name": "Zeros", "config": {}}, "moving_variance_initializer": {"class_name": "Ones", "config": {}}, "beta_regularizer": null, "gamma_regularizer": null, "beta_constraint": null, "gamma_constraint": null}, "name": "batch_normalization_680", "inbound_nodes": [[["conv1d_785", 0, 0, {}]]]}, {"class_name": "BatchNormalization", "config": {"name": "batch_normalization_690", "trainable": true, "dtype": "float32", "axis": [2], "momentum": 0.99, "epsilon": 0.001, "center": true, "scale": true, "beta_initializer": {"class_name": "Zeros", "config": {}}, "gamma_initializer": {"class_name": "Ones", "config": {}}, "moving_mean_initializer": {"class_name": "Zeros", "config": {}}, "moving_variance_initializer": {"class_name": "Ones", "config": {}}, "beta_regularizer": null, "gamma_regularizer": null, "beta_constraint": null, "gamma_constraint": null}, "name": "batch_normalization_690", "inbound_nodes": [[["conv1d_797", 0, 0, {}]]]}, {"class_name": "BatchNormalization", "config": {"name": "batch_normalization_700", "trainable": true, "dtype": "float32", "axis": [2], "momentum": 0.99, "epsilon": 0.001, "center": true, "scale": true, "beta_initializer": {"class_name": "Zeros", "config": {}}, "gamma_initializer": {"class_name": "Ones", "config": {}}, "moving_mean_initializer": {"class_name": "Zeros", "config": {}}, "moving_variance_initializer": {"class_name": "Ones", "config": {}}, "beta_regularizer": null, "gamma_regularizer": null, "beta_constraint": null, "gamma_constraint": null}, "name": "batch_normalization_700", "inbound_nodes": [[["conv1d_809", 0, 0, {}]]]}, {"class_name": "BatchNormalization", "config": {"name": "batch_normalization_710", "trainable": true, "dtype": "float32", "axis": [2], "momentum": 0.99, "epsilon": 0.001, "center": true, "scale": true, "beta_initializer": {"class_name": "Zeros", "config": {}}, "gamma_initializer": {"class_name": "Ones", "config": {}}, "moving_mean_initializer": {"class_name": "Zeros", "config": {}}, "moving_variance_initializer": {"class_name": "Ones", "config": {}}, "beta_regularizer": null, "gamma_regularizer": null, "beta_constraint": null, "gamma_constraint": null}, "name": "batch_normalization_710", "inbound_nodes": [[["conv1d_821", 0, 0, {}]]]}, {"class_name": "BatchNormalization", "config": {"name": "batch_normalization_720", "trainable": true, "dtype": "float32", "axis": [2], "momentum": 0.99, "epsilon": 0.001, "center": true, "scale": true, "beta_initializer": {"class_name": "Zeros", "config": {}}, "gamma_initializer": {"class_name": "Ones", "config": {}}, "moving_mean_initializer": {"class_name": "Zeros", "config": {}}, "moving_variance_initializer": {"class_name": "Ones", "config": {}}, "beta_regularizer": null, "gamma_regularizer": null, "beta_constraint": null, "gamma_constraint": null}, "name": "batch_normalization_720", "inbound_nodes": [[["conv1d_833", 0, 0, {}]]]}, {"class_name": "BatchNormalization", "config": {"name": "batch_normalization_730", "trainable": true, "dtype": "float32", "axis": [2], "momentum": 0.99, "epsilon": 0.001, "center": true, "scale": true, "beta_initializer": {"class_name": "Zeros", "config": {}}, "gamma_initializer": {"class_name": "Ones", "config": {}}, "moving_mean_initializer": {"class_name": "Zeros", "config": {}}, "moving_variance_initializer": {"class_name": "Ones", "config": {}}, "beta_regularizer": null, "gamma_regularizer": null, "beta_constraint": null, "gamma_constraint": null}, "name": "batch_normalization_730", "inbound_nodes": [[["conv1d_845", 0, 0, {}]]]}, {"class_name": "Conv1D", "config": {"name": "conv1d_764", "trainable": true, "batch_input_shape": [null, 500, 1], "dtype": "float32", "filters": 32, "kernel_size": [3], "strides": [1], "padding": "valid", "data_format": "channels_last", "dilation_rate": [1], "groups": 1, "activation": "relu", "use_bias": true, "kernel_initializer": {"class_name": "GlorotUniform", "config": {"seed": null}}, "bias_initializer": {"class_name": "Zeros", "config": {}}, "kernel_regularizer": null, "bias_regularizer": null, "activity_regularizer": null, "kernel_constraint": null, "bias_constraint": null}, "name": "conv1d_764", "inbound_nodes": [[["batch_normalization_669", 0, 0, {}]]]}, {"class_name": "Activation", "config": {"name": "activation_810", "trainable": true, "dtype": "float32", "activation": "relu"}, "name": "activation_810", "inbound_nodes": [[["batch_normalization_680", 0, 0, {}]]]}, {"class_name": "Activation", "config": {"name": "activation_822", "trainable": true, "dtype": "float32", "activation": "relu"}, "name": "activation_822", "inbound_nodes": [[["batch_normalization_690", 0, 0, {}]]]}, {"class_name": "Activation", "config": {"name": "activation_834", "trainable": true, "dtype": "float32", "activation": "relu"}, "name": "activation_834", "inbound_nodes": [[["batch_normalization_700", 0, 0, {}]]]}, {"class_name": "Activation", "config": {"name": "activation_846", "trainable": true, "dtype": "float32", "activation": "relu"}, "name": "activation_846", "inbound_nodes": [[["batch_normalization_710", 0, 0, {}]]]}, {"class_name": "Activation", "config": {"name": "activation_858", "trainable": true, "dtype": "float32", "activation": "relu"}, "name": "activation_858", "inbound_nodes": [[["batch_normalization_720", 0, 0, {}]]]}, {"class_name": "Activation", "config": {"name": "activation_870", "trainable": true, "dtype": "float32", "activation": "relu"}, "name": "activation_870", "inbound_nodes": [[["batch_normalization_730", 0, 0, {}]]]}, {"class_name": "Conv1D", "config": {"name": "conv1d_765", "trainable": true, "dtype": "float32", "filters": 32, "kernel_size": [3], "strides": [1], "padding": "valid", "data_format": "channels_last", "dilation_rate": [1], "groups": 1, "activation": "relu", "use_bias": true, "kernel_initializer": {"class_name": "GlorotUniform", "config": {"seed": null}}, "bias_initializer": {"class_name": "Zeros", "config": {}}, "kernel_regularizer": null, "bias_regularizer": null, "activity_regularizer": null, "kernel_constraint": null, "bias_constraint": null}, "name": "conv1d_765", "inbound_nodes": [[["conv1d_764", 0, 0, {}]]]}, {"class_name": "Add", "config": {"name": "add_202", "trainable": true, "dtype": "float32"}, "name": "add_202", "inbound_nodes": [[["activation_810", 0, 0, {}], ["activation_807", 0, 0, {}]]]}, {"class_name": "Add", "config": {"name": "add_205", "trainable": true, "dtype": "float32"}, "name": "add_205", "inbound_nodes": [[["activation_822", 0, 0, {}], ["activation_819", 0, 0, {}]]]}, {"class_name": "Add", "config": {"name": "add_208", "trainable": true, "dtype": "float32"}, "name": "add_208", "inbound_nodes": [[["activation_834", 0, 0, {}], ["activation_831", 0, 0, {}]]]}, {"class_name": "Add", "config": {"name": "add_211", "trainable": true, "dtype": "float32"}, "name": "add_211", "inbound_nodes": [[["activation_846", 0, 0, {}], ["activation_843", 0, 0, {}]]]}, {"class_name": "Add", "config": {"name": "add_214", "trainable": true, "dtype": "float32"}, "name": "add_214", "inbound_nodes": [[["activation_858", 0, 0, {}], ["activation_855", 0, 0, {}]]]}, {"class_name": "Add", "config": {"name": "add_217", "trainable": true, "dtype": "float32"}, "name": "add_217", "inbound_nodes": [[["activation_870", 0, 0, {}], ["activation_867", 0, 0, {}]]]}, {"class_name": "MaxPooling1D", "config": {"name": "max_pooling1d_14", "trainable": true, "dtype": "float32", "strides": [2], "pool_size": [2], "padding": "valid", "data_format": "channels_last"}, "name": "max_pooling1d_14", "inbound_nodes": [[["conv1d_765", 0, 0, {}]]]}, {"class_name": "Activation", "config": {"name": "activation_811", "trainable": true, "dtype": "float32", "activation": "relu"}, "name": "activation_811", "inbound_nodes": [[["add_202", 0, 0, {}]]]}, {"class_name": "Activation", "config": {"name": "activation_823", "trainable": true, "dtype": "float32", "activation": "relu"}, "name": "activation_823", "inbound_nodes": [[["add_205", 0, 0, {}]]]}, {"class_name": "Activation", "config": {"name": "activation_835", "trainable": true, "dtype": "float32", "activation": "relu"}, "name": "activation_835", "inbound_nodes": [[["add_208", 0, 0, {}]]]}, {"class_name": "Activation", "config": {"name": "activation_847", "trainable": true, "dtype": "float32", "activation": "relu"}, "name": "activation_847", "inbound_nodes": [[["add_211", 0, 0, {}]]]}, {"class_name": "Activation", "config": {"name": "activation_859", "trainable": true, "dtype": "float32", "activation": "relu"}, "name": "activation_859", "inbound_nodes": [[["add_214", 0, 0, {}]]]}, {"class_name": "Activation", "config": {"name": "activation_871", "trainable": true, "dtype": "float32", "activation": "relu"}, "name": "activation_871", "inbound_nodes": [[["add_217", 0, 0, {}]]]}, {"class_name": "BatchNormalization", "config": {"name": "batch_normalization_670", "trainable": true, "dtype": "float32", "axis": [2], "momentum": 0.99, "epsilon": 0.001, "center": true, "scale": true, "beta_initializer": {"class_name": "Zeros", "config": {}}, "gamma_initializer": {"class_name": "Ones", "config": {}}, "moving_mean_initializer": {"class_name": "Zeros", "config": {}}, "moving_variance_initializer": {"class_name": "Ones", "config": {}}, "beta_regularizer": null, "gamma_regularizer": null, "beta_constraint": null, "gamma_constraint": null}, "name": "batch_normalization_670", "inbound_nodes": [[["max_pooling1d_14", 0, 0, {}]]]}, {"class_name": "Concatenate", "config": {"name": "concatenate_38", "trainable": true, "dtype": "float32", "axis": 1}, "name": "concatenate_38", "inbound_nodes": [[["activation_811", 0, 0, {}], ["activation_823", 0, 0, {}], ["activation_835", 0, 0, {}], ["activation_847", 0, 0, {}], ["activation_859", 0, 0, {}], ["activation_871", 0, 0, {}]]]}, {"class_name": "Concatenate", "config": {"name": "concatenate_39", "trainable": true, "dtype": "float32", "axis": 1}, "name": "concatenate_39", "inbound_nodes": [[["batch_normalization_670", 0, 0, {}], ["concatenate_38", 0, 0, {}]]]}, {"class_name": "Conv1D", "config": {"name": "conv1d_847", "trainable": true, "dtype": "float32", "filters": 16, "kernel_size": [1], "strides": [1], "padding": "valid", "data_format": "channels_last", "dilation_rate": [1], "groups": 1, "activation": "linear", "use_bias": true, "kernel_initializer": {"class_name": "GlorotUniform", "config": {"seed": null}}, "bias_initializer": {"class_name": "Zeros", "config": {}}, "kernel_regularizer": null, "bias_regularizer": null, "activity_regularizer": null, "kernel_constraint": null, "bias_constraint": null}, "name": "conv1d_847", "inbound_nodes": [[["batch_normalization_670", 0, 0, {}]]]}, {"class_name": "Conv1D", "config": {"name": "conv1d_899", "trainable": true, "dtype": "float32", "filters": 16, "kernel_size": [1], "strides": [1], "padding": "valid", "data_format": "channels_last", "dilation_rate": [1], "groups": 1, "activation": "linear", "use_bias": true, "kernel_initializer": {"class_name": "GlorotUniform", "config": {"seed": null}}, "bias_initializer": {"class_name": "Zeros", "config": {}}, "kernel_regularizer": null, "bias_regularizer": null, "activity_regularizer": null, "kernel_constraint": null, "bias_constraint": null}, "name": "conv1d_899", "inbound_nodes": [[["concatenate_39", 0, 0, {}]]]}, {"class_name": "BatchNormalization", "config": {"name": "batch_normalization_732", "trainable": true, "dtype": "float32", "axis": [2], "momentum": 0.99, "epsilon": 0.001, "center": true, "scale": true, "beta_initializer": {"class_name": "Zeros", "config": {}}, "gamma_initializer": {"class_name": "Ones", "config": {}}, "moving_mean_initializer": {"class_name": "Zeros", "config": {}}, "moving_variance_initializer": {"class_name": "Ones", "config": {}}, "beta_regularizer": null, "gamma_regularizer": null, "beta_constraint": null, "gamma_constraint": null}, "name": "batch_normalization_732", "inbound_nodes": [[["conv1d_847", 0, 0, {}]]]}, {"class_name": "BatchNormalization", "config": {"name": "batch_normalization_784", "trainable": true, "dtype": "float32", "axis": [2], "momentum": 0.99, "epsilon": 0.001, "center": true, "scale": true, "beta_initializer": {"class_name": "Zeros", "config": {}}, "gamma_initializer": {"class_name": "Ones", "config": {}}, "moving_mean_initializer": {"class_name": "Zeros", "config": {}}, "moving_variance_initializer": {"class_name": "Ones", "config": {}}, "beta_regularizer": null, "gamma_regularizer": null, "beta_constraint": null, "gamma_constraint": null}, "name": "batch_normalization_784", "inbound_nodes": [[["conv1d_899", 0, 0, {}]]]}, {"class_name": "Activation", "config": {"name": "activation_872", "trainable": true, "dtype": "float32", "activation": "relu"}, "name": "activation_872", "inbound_nodes": [[["batch_normalization_732", 0, 0, {}]]]}, {"class_name": "Activation", "config": {"name": "activation_936", "trainable": true, "dtype": "float32", "activation": "relu"}, "name": "activation_936", "inbound_nodes": [[["batch_normalization_784", 0, 0, {}]]]}, {"class_name": "Conv1D", "config": {"name": "conv1d_848", "trainable": true, "dtype": "float32", "filters": 16, "kernel_size": [3], "strides": [1], "padding": "same", "data_format": "channels_last", "dilation_rate": [1], "groups": 1, "activation": "linear", "use_bias": true, "kernel_initializer": {"class_name": "GlorotUniform", "config": {"seed": null}}, "bias_initializer": {"class_name": "Zeros", "config": {}}, "kernel_regularizer": null, "bias_regularizer": null, "activity_regularizer": null, "kernel_constraint": null, "bias_constraint": null}, "name": "conv1d_848", "inbound_nodes": [[["activation_872", 0, 0, {}]]]}, {"class_name": "Conv1D", "config": {"name": "conv1d_900", "trainable": true, "dtype": "float32", "filters": 16, "kernel_size": [3], "strides": [1], "padding": "same", "data_format": "channels_last", "dilation_rate": [1], "groups": 1, "activation": "linear", "use_bias": true, "kernel_initializer": {"class_name": "GlorotUniform", "config": {"seed": null}}, "bias_initializer": {"class_name": "Zeros", "config": {}}, "kernel_regularizer": null, "bias_regularizer": null, "activity_regularizer": null, "kernel_constraint": null, "bias_constraint": null}, "name": "conv1d_900", "inbound_nodes": [[["activation_936", 0, 0, {}]]]}, {"class_name": "BatchNormalization", "config": {"name": "batch_normalization_733", "trainable": true, "dtype": "float32", "axis": [2], "momentum": 0.99, "epsilon": 0.001, "center": true, "scale": true, "beta_initializer": {"class_name": "Zeros", "config": {}}, "gamma_initializer": {"class_name": "Ones", "config": {}}, "moving_mean_initializer": {"class_name": "Zeros", "config": {}}, "moving_variance_initializer": {"class_name": "Ones", "config": {}}, "beta_regularizer": null, "gamma_regularizer": null, "beta_constraint": null, "gamma_constraint": null}, "name": "batch_normalization_733", "inbound_nodes": [[["conv1d_848", 0, 0, {}]]]}, {"class_name": "BatchNormalization", "config": {"name": "batch_normalization_785", "trainable": true, "dtype": "float32", "axis": [2], "momentum": 0.99, "epsilon": 0.001, "center": true, "scale": true, "beta_initializer": {"class_name": "Zeros", "config": {}}, "gamma_initializer": {"class_name": "Ones", "config": {}}, "moving_mean_initializer": {"class_name": "Zeros", "config": {}}, "moving_variance_initializer": {"class_name": "Ones", "config": {}}, "beta_regularizer": null, "gamma_regularizer": null, "beta_constraint": null, "gamma_constraint": null}, "name": "batch_normalization_785", "inbound_nodes": [[["conv1d_900", 0, 0, {}]]]}, {"class_name": "Activation", "config": {"name": "activation_873", "trainable": true, "dtype": "float32", "activation": "relu"}, "name": "activation_873", "inbound_nodes": [[["batch_normalization_733", 0, 0, {}]]]}, {"class_name": "Activation", "config": {"name": "activation_937", "trainable": true, "dtype": "float32", "activation": "relu"}, "name": "activation_937", "inbound_nodes": [[["batch_normalization_785", 0, 0, {}]]]}, {"class_name": "Conv1D", "config": {"name": "conv1d_849", "trainable": true, "dtype": "float32", "filters": 64, "kernel_size": [1], "strides": [1], "padding": "valid", "data_format": "channels_last", "dilation_rate": [1], "groups": 1, "activation": "linear", "use_bias": true, "kernel_initializer": {"class_name": "GlorotUniform", "config": {"seed": null}}, "bias_initializer": {"class_name": "Zeros", "config": {}}, "kernel_regularizer": null, "bias_regularizer": null, "activity_regularizer": null, "kernel_constraint": null, "bias_constraint": null}, "name": "conv1d_849", "inbound_nodes": [[["activation_873", 0, 0, {}]]]}, {"class_name": "Conv1D", "config": {"name": "conv1d_901", "trainable": true, "dtype": "float32", "filters": 64, "kernel_size": [1], "strides": [1], "padding": "valid", "data_format": "channels_last", "dilation_rate": [1], "groups": 1, "activation": "linear", "use_bias": true, "kernel_initializer": {"class_name": "GlorotUniform", "config": {"seed": null}}, "bias_initializer": {"class_name": "Zeros", "config": {}}, "kernel_regularizer": null, "bias_regularizer": null, "activity_regularizer": null, "kernel_constraint": null, "bias_constraint": null}, "name": "conv1d_901", "inbound_nodes": [[["activation_937", 0, 0, {}]]]}, {"class_name": "BatchNormalization", "config": {"name": "batch_normalization_734", "trainable": true, "dtype": "float32", "axis": [2], "momentum": 0.99, "epsilon": 0.001, "center": true, "scale": true, "beta_initializer": {"class_name": "Zeros", "config": {}}, "gamma_initializer": {"class_name": "Ones", "config": {}}, "moving_mean_initializer": {"class_name": "Zeros", "config": {}}, "moving_variance_initializer": {"class_name": "Ones", "config": {}}, "beta_regularizer": null, "gamma_regularizer": null, "beta_constraint": null, "gamma_constraint": null}, "name": "batch_normalization_734", "inbound_nodes": [[["conv1d_849", 0, 0, {}]]]}, {"class_name": "Conv1D", "config": {"name": "conv1d_846", "trainable": true, "dtype": "float32", "filters": 64, "kernel_size": [1], "strides": [1], "padding": "valid", "data_format": "channels_last", "dilation_rate": [1], "groups": 1, "activation": "linear", "use_bias": true, "kernel_initializer": {"class_name": "GlorotUniform", "config": {"seed": null}}, "bias_initializer": {"class_name": "Zeros", "config": {}}, "kernel_r…
56], "dtype": "float32"}, {"name": "batch_normalization_763/moving_variance", "shape": [256], "dtype": "float32"}, {"name": "batch_normalization_764/gamma", "shape": [64], "dtype": "float32"}, {"name": "batch_normalization_764/beta", "shape": [64], "dtype": "float32"}, {"name": "batch_normalization_764/moving_mean", "shape": [64], "dtype": "float32"}, {"name": "batch_normalization_764/moving_variance", "shape": [64], "dtype": "float32"}, {"name": "batch_normalization_765/gamma", "shape": [64], "dtype": "float32"}, {"name": "batch_normalization_765/beta", "shape": [64], "dtype": "float32"}, {"name": "batch_normalization_765/moving_mean", "shape": [64], "dtype": "float32"}, {"name": "batch_normalization_765/moving_variance", "shape": [64], "dtype": "float32"}, {"name": "batch_normalization_766/gamma", "shape": [256], "dtype": "float32"}, {"name": "batch_normalization_766/beta", "shape": [256], "dtype": "float32"}, {"name": "batch_normalization_766/moving_mean", "shape": [256], "dtype": "float32"}, {"name": "batch_normalization_766/moving_variance", "shape": [256], "dtype": "float32"}, {"name": "batch_normalization_767/gamma", "shape": [64], "dtype": "float32"}, {"name": "batch_normalization_767/beta", "shape": [64], "dtype": "float32"}, {"name": "batch_normalization_767/moving_mean", "shape": [64], "dtype": "float32"}, {"name": "batch_normalization_767/moving_variance", "shape": [64], "dtype": "float32"}, {"name": "batch_normalization_768/gamma", "shape": [64], "dtype": "float32"}, {"name": "batch_normalization_768/beta", "shape": [64], "dtype": "float32"}, {"name": "batch_normalization_768/moving_mean", "shape": [64], "dtype": "float32"}, {"name": "batch_normalization_768/moving_variance", "shape": [64], "dtype": "float32"}, {"name": "batch_normalization_769/gamma", "shape": [256], "dtype": "float32"}, {"name": "batch_normalization_769/beta", "shape": [256], "dtype": "float32"}, {"name": "batch_normalization_769/moving_mean", "shape": [256], "dtype": "float32"}, {"name": "batch_normalization_769/moving_variance", "shape": [256], "dtype": "float32"}, {"name": "batch_normalization_770/gamma", "shape": [64], "dtype": "float32"}, {"name": "batch_normalization_770/beta", "shape": [64], "dtype": "float32"}, {"name": "batch_normalization_770/moving_mean", "shape": [64], "dtype": "float32"}, {"name": "batch_normalization_770/moving_variance", "shape": [64], "dtype": "float32"}, {"name": "batch_normalization_771/gamma", "shape": [64], "dtype": "float32"}, {"name": "batch_normalization_771/beta", "shape": [64], "dtype": "float32"}, {"name": "batch_normalization_771/moving_mean", "shape": [64], "dtype": "float32"}, {"name": "batch_normalization_771/moving_variance", "shape": [64], "dtype": "float32"}, {"name": "batch_normalization_772/gamma", "shape": [256], "dtype": "float32"}, {"name": "batch_normalization_772/beta", "shape": [256], "dtype": "float32"}, {"name": "batch_normalization_772/moving_mean", "shape": [256], "dtype": "float32"}, {"name": "batch_normalization_772/moving_variance", "shape": [256], "dtype": "float32"}, {"name": "batch_normalization_773/gamma", "shape": [512], "dtype": "float32"}, {"name": "batch_normalization_773/beta", "shape": [512], "dtype": "float32"}, {"name": "batch_normalization_773/moving_mean", "shape": [512], "dtype": "float32"}, {"name": "batch_normalization_773/moving_variance", "shape": [512], "dtype": "float32"}, {"name": "batch_normalization_774/gamma", "shape": [128], "dtype": "float32"}, {"name": "batch_normalization_774/beta", "shape": [128], "dtype": "float32"}, {"name": "batch_normalization_774/moving_mean", "shape": [128], "dtype": "float32"}, {"name": "batch_normalization_774/moving_variance", "shape": [128], "dtype": "float32"}, {"name": "batch_normalization_775/gamma", "shape": [128], "dtype": "float32"}, {"name": "batch_normalization_775/beta", "shape": [128], "dtype": "float32"}, {"name": "batch_normalization_775/moving_mean", "shape": [128], "dtype": "float32"}, {"name": "batch_normalization_775/moving_variance", "shape": [128], "dtype": "float32"}, {"name": "batch_normalization_776/gamma", "shape": [512], "dtype": "float32"}, {"name": "batch_normalization_776/beta", "shape": [512], "dtype": "float32"}, {"name": "batch_normalization_776/moving_mean", "shape": [512], "dtype": "float32"}, {"name": "batch_normalization_776/moving_variance", "shape": [512], "dtype": "float32"}, {"name": "batch_normalization_777/gamma", "shape": [128], "dtype": "float32"}, {"name": "batch_normalization_777/beta", "shape": [128], "dtype": "float32"}, {"name": "batch_normalization_777/moving_mean", "shape": [128], "dtype": "float32"}, {"name": "batch_normalization_777/moving_variance", "shape": [128], "dtype": "float32"}, {"name": "batch_normalization_778/gamma", "shape": [128], "dtype": "float32"}, {"name": "batch_normalization_778/beta", "shape": [128], "dtype": "float32"}, {"name": "batch_normalization_778/moving_mean", "shape": [128], "dtype": "float32"}, {"name": "batch_normalization_778/moving_variance", "shape": [128], "dtype": "float32"}, {"name": "batch_normalization_779/gamma", "shape": [512], "dtype": "float32"}, {"name": "batch_normalization_779/beta", "shape": [512], "dtype": "float32"}, {"name": "batch_normalization_779/moving_mean", "shape": [512], "dtype": "float32"}, {"name": "batch_normalization_779/moving_variance", "shape": [512], "dtype": "float32"}, {"name": "batch_normalization_780/gamma", "shape": [128], "dtype": "float32"}, {"name": "batch_normalization_780/beta", "shape": [128], "dtype": "float32"}, {"name": "batch_normalization_780/moving_mean", "shape": [128], "dtype": "float32"}, {"name": "batch_normalization_780/moving_variance", "shape": [128], "dtype": "float32"}, {"name": "batch_normalization_781/gamma", "shape": [128], "dtype": "float32"}, {"name": "batch_normalization_781/beta", "shape": [128], "dtype": "float32"}, {"name": "batch_normalization_781/moving_mean", "shape": [128], "dtype": "float32"}, {"name": "batch_normalization_781/moving_variance", "shape": [128], "dtype": "float32"}, {"name": "batch_normalization_782/gamma", "shape": [512], "dtype": "float32"}, {"name": "batch_normalization_782/beta", "shape": [512], "dtype": "float32"}, {"name": "batch_normalization_782/moving_mean", "shape": [512], "dtype": "float32"}, {"name": "batch_normalization_782/moving_variance", "shape": [512], "dtype": "float32"}, {"name": "batch_normalization_783/gamma", "shape": [64], "dtype": "float32"}, {"name": "batch_normalization_783/beta", "shape": [64], "dtype": "float32"}, {"name": "batch_normalization_783/moving_mean", "shape": [64], "dtype": "float32"}, {"name": "batch_normalization_783/moving_variance", "shape": [64], "dtype": "float32"}, {"name": "batch_normalization_784/gamma", "shape": [16], "dtype": "float32"}, {"name": "batch_normalization_784/beta", "shape": [16], "dtype": "float32"}, {"name": "batch_normalization_784/moving_mean", "shape": [16], "dtype": "float32"}, {"name": "batch_normalization_784/moving_variance", "shape": [16], "dtype": "float32"}, {"name": "batch_normalization_785/gamma", "shape": [16], "dtype": "float32"}, {"name": "batch_normalization_785/beta", "shape": [16], "dtype": "float32"}, {"name": "batch_normalization_785/moving_mean", "shape": [16], "dtype": "float32"}, {"name": "batch_normalization_785/moving_variance", "shape": [16], "dtype": "float32"}, {"name": "batch_normalization_786/gamma", "shape": [64], "dtype": "float32"}, {"name": "batch_normalization_786/beta", "shape": [64], "dtype": "float32"}, {"name": "batch_normalization_786/moving_mean", "shape": [64], "dtype": "float32"}, {"name": "batch_normalization_786/moving_variance", "shape": [64], "dtype": "float32"}, {"name": "batch_normalization_787/gamma", "shape": [16], "dtype": "float32"}, {"name": "batch_normalization_787/beta", "shape": [16], "dtype": "float32"}, {"name": "batch_normalization_787/moving_mean", "shape": [16], "dtype": "float32"}, {"name": "batch_normalization_787/moving_variance", "shape": [16], "dtype": "float32"}, {"name": "batch_normalization_788/gamma", "shape": [16], "dtype": "float32"}, {"name": "batch_normalization_788/beta", "shape": [16], "dtype": "float32"}, {"name": "batch_normalization_788/moving_mean", "shape": [16], "dtype": "float32"}, {"name": "batch_normalization_788/moving_variance", "shape": [16], "dtype": "float32"}, {"name": "batch_normalization_789/gamma", "shape": [64], "dtype": "float32"}, {"name": "batch_normalization_789/beta", "shape": [64], "dtype": "float32"}, {"name": "batch_normalization_789/moving_mean", "shape": [64], "dtype": "float32"}, {"name": "batch_normalization_789/moving_variance", "shape": [64], "dtype": "float32"}, {"name": "batch_normalization_790/gamma", "shape": [16], "dtype": "float32"}, {"name": "batch_normalization_790/beta", "shape": [16], "dtype": "float32"}, {"name": "batch_normalization_790/moving_mean", "shape": [16], "dtype": "float32"}, {"name": "batch_normalization_790/moving_variance", "shape": [16], "dtype": "float32"}, {"name": "batch_normalization_791/gamma", "shape": [16], "dtype": "float32"}, {"name": "batch_normalization_791/beta", "shape": [16], "dtype": "float32"}, {"name": "batch_normalization_791/moving_mean", "shape": [16], "dtype": "float32"}, {"name": "batch_normalization_791/moving_variance", "shape": [16], "dtype": "float32"}, {"name": "batch_normalization_792/gamma", "shape": [64], "dtype": "float32"}, {"name": "batch_normalization_792/beta", "shape": [64], "dtype": "float32"}, {"name": "batch_normalization_792/moving_mean", "shape": [64], "dtype": "float32"}, {"name": "batch_normalization_792/moving_variance", "shape": [64], "dtype": "float32"}, {"name": "batch_normalization_793/gamma", "shape": [128], "dtype": "float32"}, {"name": "batch_normalization_793/beta", "shape": [128], "dtype": "float32"}, {"name": "batch_normalization_793/moving_mean", "shape": [128], "dtype": "float32"}, {"name": "batch_normalization_793/moving_variance", "shape": [128], "dtype": "float32"}, {"name": "batch_normalization_794/gamma", "shape": [32], "dtype": "float32"}, {"name": "batch_normalization_794/beta", "shape": [32], "dtype": "float32"}, {"name": "batch_normalization_794/moving_mean", "shape": [32], "dtype": "float32"}, {"name": "batch_normalization_794/moving_variance", "shape": [32], "dtype": "float32"}, {"name": "batch_normalization_795/gamma", "shape": [32], "dtype": "float32"}, {"name": "batch_normalization_795/beta", "shape": [32], "dtype": "float32"}, {"name": "batch_normalization_795/moving_mean", "shape": [32], "dtype": "float32"}, {"name": "batch_normalization_795/moving_variance", "shape": [32], "dtype": "float32"}, {"name": "batch_normalization_796/gamma", "shape": [128], "dtype": "float32"}, {"name": "batch_normalization_796/beta", "shape": [128], "dtype": "float32"}, {"name": "batch_normalization_796/moving_mean", "shape": [128], "dtype": "float32"}, {"name": "batch_normalization_796/moving_variance", "shape": [128], "dtype": "float32"}, {"name": "batch_normalization_797/gamma", "shape": [32], "dtype": "float32"}, {"name": "batch_normalization_797/beta", "shape": [32], "dtype": "float32"}, {"name": "batch_normalization_797/moving_mean", "shape": [32], "dtype": "float32"}, {"name": "batch_normalization_797/moving_variance", "shape": [32], "dtype": "float32"}, {"name": "batch_normalization_798/gamma", "shape": [32], "dtype": "float32"}, {"name": "batch_normalization_798/beta", "shape": [32], "dtype": "float32"}, {"name": "batch_normalization_798/moving_mean", "shape": [32], "dtype": "float32"}, {"name": "batch_normalization_798/moving_variance", "shape": [32], "dtype": "float32"}, {"name": "batch_normalization_799/gamma", "shape": [128], "dtype": "float32"}, {"name": "batch_normalization_799/beta", "shape": [128], "dtype": "float32"}, {"name": "batch_normalization_799/moving_mean", "shape": [128], "dtype": "float32"}, {"name": "batch_normalization_799/moving_variance", "shape": [128], "dtype": "float32"}, {"name": "batch_normalization_800/gamma", "shape": [32], "dtype": "float32"}, {"name": "batch_normalization_800/beta", "shape": [32], "dtype": "float32"}, {"name": "batch_normalization_800/moving_mean", "shape": [32], "dtype": "float32"}, {"name": "batch_normalization_800/moving_variance", "shape": [32], "dtype": "float32"}, {"name": "batch_normalization_801/gamma", "shape": [32], "dtype": "float32"}, {"name": "batch_normalization_801/beta", "shape": [32], "dtype": "float32"}, {"name": "batch_normalization_801/moving_mean", "shape": [32], "dtype": "float32"}, {"name": "batch_normalization_801/moving_variance", "shape": [32], "dtype": "float32"}, {"name": "batch_normalization_802/gamma", "shape": [128], "dtype": "float32"}, {"name": "batch_normalization_802/beta", "shape": [128], "dtype": "float32"}, {"name": "batch_normalization_802/moving_mean", "shape": [128], "dtype": "float32"}, {"name": "batch_normalization_802/moving_variance", "shape": [128], "dtype": "float32"}, {"name": "batch_normalization_803/gamma", "shape": [32], "dtype": "float32"}, {"name": "batch_normalization_803/beta", "shape": [32], "dtype": "float32"}, {"name": "batch_normalization_803/moving_mean", "shape": [32], "dtype": "float32"}, {"name": "batch_normalization_803/moving_variance", "shape": [32], "dtype": "float32"}, {"name": "batch_normalization_804/gamma", "shape": [32], "dtype": "float32"}, {"name": "batch_normalization_804/beta", "shape": [32], "dtype": "float32"}, {"name": "batch_normalization_804/moving_mean", "shape": [32], "dtype": "float32"}, {"name": "batch_normalization_804/moving_variance", "shape": [32], "dtype": "float32"}, {"name": "batch_normalization_805/gamma", "shape": [128], "dtype": "float32"}, {"name": "batch_normalization_805/beta", "shape": [128], "dtype": "float32"}, {"name": "batch_normalization_805/moving_mean", "shape": [128], "dtype": "float32"}, {"name": "batch_normalization_805/moving_variance", "shape": [128], "dtype": "float32"}, {"name": "batch_normalization_806/gamma", "shape": [256], "dtype": "float32"}, {"name": "batch_normalization_806/beta", "shape": [256], "dtype": "float32"}, {"name": "batch_normalization_806/moving_mean", "shape": [256], "dtype": "float32"}, {"name": "batch_normalization_806/moving_variance", "shape": [256], "dtype": "float32"}, {"name": "batch_normalization_807/gamma", "shape": [64], "dtype": "float32"}, {"name": "batch_normalization_807/beta", "shape": [64], "dtype": "float32"}, {"name": "batch_normalization_807/moving_mean", "shape": [64], "dtype": "float32"}, {"name": "batch_normalization_807/moving_variance", "shape": [64], "dtype": "float32"}, {"name": "batch_normalization_808/gamma", "shape": [64], "dtype": "float32"}, {"name": "batch_normalization_808/beta", "shape": [64], "dtype": "float32"}, {"name": "batch_normalization_808/moving_mean", "shape": [64], "dtype": "float32"}, {"name": "batch_normalization_808/moving_variance", "shape": [64], "dtype": "float32"}, {"name": "batch_normalization_809/gamma", "shape": [256], "dtype": "float32"}, {"name": "batch_normalization_809/beta", "shape": [256], "dtype": "float32"}, {"name": "batch_normalization_809/moving_mean", "shape": [256], "dtype": "float32"}, {"name": "batch_normalization_809/moving_variance", "shape": [256], "dtype": "float32"}, {"name": "batch_normalization_810/gamma", "shape": [64], "dtype": "float32"}, {"name": "batch_normalization_810/beta", "shape": [64], "dtype": "float32"}, {"name": "batch_normalization_810/moving_mean", "shape": [64], "dtype": "float32"}, {"name": "batch_normalization_810/moving_variance", "shape": [64], "dtype": "float32"}, {"name": "batch_normalization_811/gamma", "shape": [64], "dtype": "float32"}, {"name": "batch_normalization_811/beta", "shape": [64], "dtype": "float32"}, {"name": "batch_normalization_811/moving_mean", "shape": [64], "dtype": "float32"}, {"name": "batch_normalization_811/moving_variance", "shape": [64], "dtype": "float32"}, {"name": "batch_normalization_812/gamma", "shape": [256], "dtype": "float32"}, {"name": "batch_normalization_812/beta", "shape": [256], "dtype": "float32"}, {"name": "batch_normalization_812/moving_mean", "shape": [256], "dtype": "float32"}, {"name": "batch_normalization_812/moving_variance", "shape": [256], "dtype": "float32"}, {"name": "batch_normalization_813/gamma", "shape": [64], "dtype": "float32"}, {"name": "batch_normalization_813/beta", "shape": [64], "dtype": "float32"}, {"name": "batch_normalization_813/moving_mean", "shape": [64], "dtype": "float32"}, {"name": "batch_normalization_813/moving_variance", "shape": [64], "dtype": "float32"}, {"name": "batch_normalization_814/gamma", "shape": [64], "dtype": "float32"}, {"name": "batch_normalization_814/beta", "shape": [64], "dtype": "float32"}, {"name": "batch_normalization_814/moving_mean", "shape": [64], "dtype": "float32"}, {"name": "batch_normalization_814/moving_variance", "shape": [64], "dtype": "float32"}, {"name": "batch_normalization_815/gamma", "shape": [256], "dtype": "float32"}, {"name": "batch_normalization_815/beta", "shape": [256], "dtype": "float32"}, {"name": "batch_normalization_815/moving_mean", "shape": [256], "dtype": "float32"}, {"name": "batch_normalization_815/moving_variance", "shape": [256], "dtype": "float32"}, {"name": "batch_normalization_816/gamma", "shape": [64], "dtype": "float32"}, {"name": "batch_normalization_816/beta", "shape": [64], "dtype": "float32"}, {"name": "batch_normalization_816/moving_mean", "shape": [64], "dtype": "float32"}, {"name": "batch_normalization_816/moving_variance", "shape": [64], "dtype": "float32"}, {"name": "batch_normalization_817/gamma", "shape": [64], "dtype": "float32"}, {"name": "batch_normalization_817/beta", "shape": [64], "dtype": "float32"}, {"name": "batch_normalization_817/moving_mean", "shape": [64], "dtype": "float32"}, {"name": "batch_normalization_817/moving_variance", "shape": [64], "dtype": "float32"}, {"name": "batch_normalization_818/gamma", "shape": [256], "dtype": "float32"}, {"name": "batch_normalization_818/beta", "shape": [256], "dtype": "float32"}, {"name": "batch_normalization_818/moving_mean", "shape": [256], "dtype": "float32"}, {"name": "batch_normalization_818/moving_variance", "shape": [256], "dtype": "float32"}, {"name": "batch_normalization_819/gamma", "shape": [64], "dtype": "float32"}, {"name": "batch_normalization_819/beta", "shape": [64], "dtype": "float32"}, {"name": "batch_normalization_819/moving_mean", "shape": [64], "dtype": "float32"}, {"name": "batch_normalization_819/moving_variance", "shape": [64], "dtype": "float32"}, {"name": "batch_normalization_820/gamma", "shape": [64], "dtype": "float32"}, {"name": "batch_normalization_820/beta", "shape": [64], "dtype": "float32"}, {"name": "batch_normalization_820/moving_mean", "shape": [64], "dtype": "float32"}, {"name": "batch_normalization_820/moving_variance", "shape": [64], "dtype": "float32"}, {"name": "batch_normalization_821/gamma", "shape": [256], "dtype": "float32"}, {"name": "batch_normalization_821/beta", "shape": [256], "dtype": "float32"}, {"name": "batch_normalization_821/moving_mean", "shape": [256], "dtype": "float32"}, {"name": "batch_normalization_821/moving_variance", "shape": [256], "dtype": "float32"}, {"name": "batch_normalization_822/gamma", "shape": [64], "dtype": "float32"}, {"name": "batch_normalization_822/beta", "shape": [64], "dtype": "float32"}, {"name": "batch_normalization_822/moving_mean", "shape": [64], "dtype": "float32"}, {"name": "batch_normalization_822/moving_variance", "shape": [64], "dtype": "float32"}, {"name": "batch_normalization_823/gamma", "shape": [64], "dtype": "float32"}, {"name": "batch_normalization_823/beta", "shape": [64], "dtype": "float32"}, {"name": "batch_normalization_823/moving_mean", "shape": [64], "dtype": "float32"}, {"name": "batch_normalization_823/moving_variance", "shape": [64], "dtype": "float32"}, {"name": "batch_normalization_824/gamma", "shape": [256], "dtype": "float32"}, {"name": "batch_normalization_824/beta", "shape": [256], "dtype": "float32"}, {"name": "batch_normalization_824/moving_mean", "shape": [256], "dtype": "float32"}, {"name": "batch_normalization_824/moving_variance", "shape": [256], "dtype": "float32"}, {"name": "batch_normalization_825/gamma", "shape": [512], "dtype": "float32"}, {"name": "batch_normalization_825/beta", "shape": [512], "dtype": "float32"}, {"name": "batch_normalization_825/moving_mean", "shape": [512], "dtype": "float32"}, {"name": "batch_normalization_825/moving_variance", "shape": [512], "dtype": "float32"}, {"name": "batch_normalization_826/gamma", "shape": [128], "dtype": "float32"}, {"name": "batch_normalization_826/beta", "shape": [128], "dtype": "float32"}, {"name": "batch_normalization_826/moving_mean", "shape": [128], "dtype": "float32"}, {"name": "batch_normalization_826/moving_variance", "shape": [128], "dtype": "float32"}, {"name": "batch_normalization_827/gamma", "shape": [128], "dtype": "float32"}, {"name": "batch_normalization_827/beta", "shape": [128], "dtype": "float32"}, {"name": "batch_normalization_827/moving_mean", "shape": [128], "dtype": "float32"}, {"name": "batch_normalization_827/moving_variance", "shape": [128], "dtype": "float32"}, {"name": "batch_normalization_828/gamma", "shape": [512], "dtype": "float32"}, {"name": "batch_normalization_828/beta", "shape": [512], "dtype": "float32"}, {"name": "batch_normalization_828/moving_mean", "shape": [512], "dtype": "float32"}, {"name": "batch_normalization_828/moving_variance", "shape": [512], "dtype": "float32"}, {"name": "batch_normalization_829/gamma", "shape": [128], "dtype": "float32"}, {"name": "batch_normalization_829/beta", "shape": [128], "dtype": "float32"}, {"name": "batch_normalization_829/moving_mean", "shape": [128], "dtype": "float32"}, {"name": "batch_normalization_829/moving_variance", "shape": [128], "dtype": "float32"}, {"name": "batch_normalization_830/gamma", "shape": [128], "dtype": "float32"}, {"name": "batch_normalization_830/beta", "shape": [128], "dtype": "float32"}, {"name": "batch_normalization_830/moving_mean", "shape": [128], "dtype": "float32"}, {"name": "batch_normalization_830/moving_variance", "shape": [128], "dtype": "float32"}, {"name": "batch_normalization_831/gamma", "shape": [512], "dtype": "float32"}, {"name": "batch_normalization_831/beta", "shape": [512], "dtype": "float32"}, {"name": "batch_normalization_831/moving_mean", "shape": [512], "dtype": "float32"}, {"name": "batch_normalization_831/moving_variance", "shape": [512], "dtype": "float32"}, {"name": "batch_normalization_832/gamma", "shape": [128], "dtype": "float32"}, {"name": "batch_normalization_832/beta", "shape": [128], "dtype": "float32"}, {"name": "batch_normalization_832/moving_mean", "shape": [128], "dtype": "float32"}, {"name": "batch_normalization_832/moving_variance", "shape": [128], "dtype": "float32"}, {"name": "batch_normalization_833/gamma", "shape": [128], "dtype": "float32"}, {"name": "batch_normalization_833/beta", "shape": [128], "dtype": "float32"}, {"name": "batch_normalization_833/moving_mean", "shape": [128], "dtype": "float32"}, {"name": "batch_normalization_833/moving_variance", "shape": [128], "dtype": "float32"}, {"name": "batch_normalization_834/gamma", "shape": [512], "dtype": "float32"}, {"name": "batch_normalization_834/beta", "shape": [512], "dtype": "float32"}, {"name": "batch_normalization_834/moving_mean", "shape": [512], "dtype": "float32"}, {"name": "batch_normalization_834/moving_variance", "shape": [512], "dtype": "float32"}, {"name": "conv1d_760/kernel", "shape": [3, 1, 8], "dtype": "float32"}, {"name": "conv1d_760/bias", "shape": [8], "dtype": "float32"}, {"name": "conv1d_761/kernel", "shape": [3, 8, 8], "dtype": "float32"}, {"name": "conv1d_761/bias", "shape": [8], "dtype": "float32"}, {"name": "conv1d_762/kernel", "shape": [3, 8, 16], "dtype": "float32"}, {"name": "conv1d_762/bias", "shape": [16], "dtype": "float32"}, {"name": "conv1d_763/kernel", "shape": [3, 16, 16], "dtype": "float32"}, {"name": "conv1d_763/bias", "shape": [16], "dtype": "float32"}, {"name": "conv1d_764/kernel", "shape": [3, 16, 32], "dtype": "float32"}, {"name": "conv1d_764/bias", "shape": [32], "dtype": "float32"}, {"name": "conv1d_765/kernel", "shape": [3, 32, 32], "dtype": "float32"}, {"name": "conv1d_765/bias", "shape": [32], "dtype": "float32"}, {"name": "conv1d_766/kernel", "shape": [3, 1, 16], "dtype": "float32"}, {"name": "conv1d_766/bias", "shape": [16], "dtype": "float32"}, {"name": "conv1d_767/kernel", "shape": [3, 16, 16], "dtype": "float32"}, {"name": "conv1d_767/bias", "shape": [16], "dtype": "float32"}, {"name": "conv1d_768/kernel", "shape": [3, 1, 16], "dtype": "float32"}, {"name": "conv1d_768/bias", "shape": [16], "dtype": "float32"}, {"name": "conv1d_769/kernel", "shape": [3, 16, 16], "dtype": "float32"}, {"name": "conv1d_769/bias", "shape": [16], "dtype": "float32"}, {"name": "conv1d_770/kernel", "shape": [3, 1, 16], "dtype": "float32"}, {"name": "conv1d_770/bias", "shape": [16], "dtype": "float32"}, {"name": "conv1d_771/kernel", "shape": [3, 16, 16], "dtype": "float32"}, {"name": "conv1d_771/bias", "shape": [16], "dtype": "float32"}, {"name": "conv1d_772/kernel", "shape": [3, 1, 16], "dtype": "float32"}, {"name": "conv1d_772/bias", "shape": [16], "dtype": "float32"}, {"name": "conv1d_773/kernel", "shape": [3, 16, 16], "dtype": "float32"}, {"name": "conv1d_773/bias", "shape": [16], "dtype": "float32"}, {"name": "conv1d_774/kernel", "shape": [3, 16, 8], "dtype": "float32"}, {"name": "conv1d_774/bias", "shape": [8], "dtype": "float32"}, {"name": "conv1d_775/kernel", "shape": [3, 8, 8], "dtype": "float32"}, {"name": "conv1d_775/bias", "shape": [8], "dtype": "float32"}, {"name": "conv1d_776/kernel", "shape": [1, 8, 32], "dtype": "float32"}, {"name": "conv1d_776/bias", "shape": [32], "dtype": "float32"}, {"name": "conv1d_777/kernel", "shape": [1, 8, 8], "dtype": "float32"}, {"name": "conv1d_777/bias", "shape": [8], "dtype": "float32"}, {"name": "conv1d_778/kernel", "shape": [3, 8, 8], "dtype": "float32"}, {"name": "conv1d_778/bias", "shape": [8], "dtype": "float32"}, {"name": "conv1d_779/kernel", "shape": [1, 8, 32], "dtype": "float32"}, {"name": "conv1d_779/bias", "shape": [32], "dtype": "float32"}, {"name": "conv1d_780/kernel", "shape": [1, 32, 8], "dtype": "float32"}, {"name": "conv1d_780/bias", "shape": [8], "dtype": "float32"}, {"name": "conv1d_781/kernel", "shape": [3, 8, 8], "dtype": "float32"}, {"name": "conv1d_781/bias", "shape": [8], "dtype": "float32"}, {"name": "conv1d_782/kernel", "shape": [1, 8, 32], "dtype": "float32"}, {"name": "conv1d_782/bias", "shape": [32], "dtype": "float32"}, {"name": "conv1d_783/kernel", "shape": [1, 32, 8], "dtype": "float32"}, {"name": "conv1d_783/bias", "shape": [8], "dtype": "float32"}, {"name": "conv1d_784/kernel", "shape": [3, 8, 8], "dtype": "float32"}, {"name": "conv1d_784/bias", "shape": [8], "dtype": "float32"}, {"name": "conv1d_785/kernel", "shape": [1, 8, 32], "dtype": "float32"}, {"name": "conv1d_785/bias", "shape": [32], "dtype": "float32"}, {"name": "conv1d_786/kernel", "shape": [3, 16, 8], "dtype": "float32"}, {"name": "conv1d_786/bias", "shape": [8], "dtype": "float32"}, {"name": "conv1d_787/kernel", "shape": [3, 8, 8], "dtype": "float32"}, {"name": "conv1d_787/bias", "shape": [8], "dtype": "float32"}, {"name": "conv1d_788/kernel", "shape": [1, 8, 32], "dtype": "float32"}, {"name": "conv1d_788/bias", "shape": [32], "dtype": "float32"}, {"name": "conv1d_789/kernel", "shape": [1, 8, 8], "dtype": "float32"}, {"name": "conv1d_789/bias", "shape": [8], "dtype": "float32"}, {"name": "conv1d_790/kernel", "shape": [3, 8, 8], "dtype": "float32"}, {"name": "conv1d_790/bias", "shape": [8], "dtype": "float32"}, {"name": "conv1d_791/kernel", "shape": [1, 8, 32], "dtype": "float32"}, {"name": "conv1d_791/bias", "shape": [32], "dtype": "float32"}, {"name": "conv1d_792/kernel", "shape": [1, 32, 8], "dtype": "float32"}, {"name": "conv1d_792/bias", "shape": [8], "dtype": "float32"}, {"name": "conv1d_793/kernel", "shape": [3, 8, 8], "dtype": "float32"}, {"name": "conv1d_793/bias", "shape": [8], "dtype": "float32"}, {"name": "conv1d_794/kernel", "shape": [1, 8, 32], "dtype": "float32"}, {"name": "conv1d_794/bias", "shape": [32], "dtype": "float32"}, {"name": "conv1d_795/kernel", "shape": [1, 32, 8], "dtype": "float32"}, {"name": "conv1d_795/bias", "shape": [8], "dtype": "float32"}, {"name": "conv1d_796/kernel", "shape": [3, 8, 8], "dtype": "float32"}, {"name": "conv1d_796/bias", "shape": [8], "dtype": "float32"}, {"name": "conv1d_797/kernel", "shape": [1, 8, 32], "dtype": "float32"}, {"name": "conv1d_797/bias", "shape": [32], "dtype": "float32"}, {"name": "conv1d_798/kernel", "shape": [3, 16, 8], "dtype": "float32"}, {"name": "conv1d_798/bias", "shape": [8], "dtype": "float32"}, {"name": "conv1d_799/kernel", "shape": [3, 8, 8], "dtype": "float32"}, {"name": "conv1d_799/bias", "shape": [8], "dtype": "float32"}, {"name": "conv1d_800/kernel", "shape": [1, 8, 32], "dtype": "float32"}, {"name": "conv1d_800/bias", "shape": [32], "dtype": "float32"}, {"name": "conv1d_801/kernel", "shape": [1, 8, 8], "dtype": "float32"}, {"name": "conv1d_801/bias", "shape": [8], "dtype": "float32"}, {"name": "conv1d_802/kernel", "shape": [3, 8, 8], "dtype": "float32"}, {"name": "conv1d_802/bias", "shape": [8], "dtype": "float32"}, {"name": "conv1d_803/kernel", "shape": [1, 8, 32], "dtype": "float32"}, {"name": "conv1d_803/bias", "shape": [32], "dtype": "float32"}, {"name": "conv1d_804/kernel", "shape": [1, 32, 8], "dtype": "float32"}, {"name": "conv1d_804/bias", "shape": [8], "dtype": "float32"}, {"name": "conv1d_805/kernel", "shape": [3, 8, 8], "dtype": "float32"}, {"name": "conv1d_805/bias", "shape": [8], "dtype": "float32"}, {"name": "conv1d_806/kernel", "shape": [1, 8, 32], "dtype": "float32"}, {"name": "conv1d_806/bias", "shape": [32], "dtype": "float32"}, {"name": "conv1d_807/kernel", "shape": [1, 32, 8], "dtype": "float32"}, {"name": "conv1d_807/bias", "shape": [8], "dtype": "float32"}, {"name": "conv1d_808/kernel", "shape": [3, 8, 8], "dtype": "float32"}, {"name": "conv1d_808/bias", "shape": [8], "dtype": "float32"}, {"name": "conv1d_809/kernel", "shape": [1, 8, 32], "dtype": "float32"}, {"name": "conv1d_809/bias", "shape": [32], "dtype": "float32"}, {"name": "conv1d_810/kernel", "shape": [3, 16, 8], "dtype": "float32"}, {"name": "conv1d_810/bias", "shape": [8], "dtype": "float32"}, {"name": "conv1d_811/kernel", "shape": [3, 8, 8], "dtype": "float32"}, {"name": "conv1d_811/bias", "shape": [8], "dtype": "float32"}, {"name": "conv1d_812/kernel", "shape": [1, 8, 32], "dtype": "float32"}, {"name": "conv1d_812/bias", "shape": [32], "dtype": "float32"}, {"name": "conv1d_813/kernel", "shape": [1, 8, 8], "dtype": "float32"}, {"name": "conv1d_813/bias", "shape": [8], "dtype": "float32"}, {"name": "conv1d_814/kernel", "shape": [3, 8, 8], "dtype": "float32"}, {"name": "conv1d_814/bias", "shape": [8], "dtype": "float32"}, {"name": "conv1d_815/kernel", "shape": [1, 8, 32], "dtype": "float32"}, {"name": "conv1d_815/bias", "shape": [32], "dtype": "float32"}, {"name": "conv1d_816/kernel", "shape": [1, 32, 8], "dtype": "float32"}, {"name": "conv1d_816/bias", "shape": [8], "dtype": "float32"}, {"name": "conv1d_817/kernel", "shape": [3, 8, 8], "dtype": "float32"}, {"name": "conv1d_817/bias", "shape": [8], "dtype": "float32"}, {"name": "conv1d_818/kernel", "shape": [1, 8, 32], "dtype": "float32"}, {"name": "conv1d_818/bias", "shape": [32], "dtype": "float32"}, {"name": "conv1d_819/kernel", "shape": [1, 32, 8], "dtype": "float32"}, {"name": "conv1d_819/bias", "shape": [8], "dtype": "float32"}, {"name": "conv1d_820/kernel", "shape": [3, 8, 8], "dtype": "float32"}, {"name": "conv1d_820/bias", "shape": [8], "dtype": "float32"}, {"name": "conv1d_821/kernel", "shape": [1, 8, 32], "dtype": "float32"}, {"name": "conv1d_821/bias", "shape": [32], "dtype": "float32"}, {"name": "conv1d_822/kernel", "shape": [3, 16, 8], "dtype": "float32"}, {"name": "conv1d_822/bias", "shape": [8], "dtype": "float32"}, {"name": "conv1d_823/kernel", "shape": [3, 8, 8], "dtype": "float32"}, {"name": "conv1d_823/bias", "shape": [8], "dtype": "float32"}, {"name": "conv1d_824/kernel", "shape": [1, 8, 32], "dtype": "float32"}, {"name": "conv1d_824/bias", "shape": [32], "dtype": "float32"}, {"name": "conv1d_825/kernel", "shape": [1, 8, 8], "dtype": "float32"}, {"name": "conv1d_825/bias", "shape": [8], "dtype": "float32"}, {"name": "conv1d_826/kernel", "shape": [3, 8, 8], "dtype": "float32"}, {"name": "conv1d_826/bias", "shape": [8], "dtype": "float32"}, {"name": "conv1d_827/kernel", "shape": [1, 8, 32], "dtype": "float32"}, {"name": "conv1d_827/bias", "shape": [32], "dtype": "float32"}, {"name": "conv1d_828/kernel", "shape": [1, 32, 8], "dtype": "float32"}, {"name": "conv1d_828/bias", "shape": [8], "dtype": "float32"}, {"name": "conv1d_829/kernel", "shape": [3, 8, 8], "dtype": "float32"}, {"name": "conv1d_829/bias", "shape": [8], "dtype": "float32"}, {"name": "conv1d_830/kernel", "shape": [1, 8, 32], "dtype": "float32"}, {"name": "conv1d_830/bias", "shape": [32], "dtype": "float32"}, {"name": "conv1d_831/kernel", "shape": [1, 32, 8], "dtype": "float32"}, {"name": "conv1d_831/bias", "shape": [8], "dtype": "float32"}, {"name": "conv1d_832/kernel", "shape": [3, 8, 8], "dtype": "float32"}, {"name": "conv1d_832/bias", "shape": [8], "dtype": "float32"}, {"name": "conv1d_833/kernel", "shape": [1, 8, 32], "dtype": "float32"}, {"name": "conv1d_833/bias", "shape": [32], "dtype": "float32"}, {"name": "conv1d_834/kernel", "shape": [3, 16, 8], "dtype": "float32"}, {"name": "conv1d_834/bias", "shape": [8], "dtype": "float32"}, {"name": "conv1d_835/kernel", "shape": [3, 8, 8], "dtype": "float32"}, {"name": "conv1d_835/bias", "shape": [8], "dtype": "float32"}, {"name": "conv1d_836/kernel", "shape": [1, 8, 32], "dtype": "float32"}, {"name": "conv1d_836/bias", "shape": [32], "dtype": "float32"}, {"name": "conv1d_837/kernel", "shape": [1, 8, 8], "dtype": "float32"}, {"name": "conv1d_837/bias", "shape": [8], "dtype": "float32"}, {"name": "conv1d_838/kernel", "shape": [3, 8, 8], "dtype": "float32"}, {"name": "conv1d_838/bias", "shape": [8], "dtype": "float32"}, {"name": "conv1d_839/kernel", "shape": [1, 8, 32], "dtype": "float32"}, {"name": "conv1d_839/bias", "shape": [32], "dtype": "float32"}, {"name": "conv1d_840/kernel", "shape": [1, 32, 8], "dtype": "float32"}, {"name": "conv1d_840/bias", "shape": [8], "dtype": "float32"}, {"name": "conv1d_841/kernel", "shape": [3, 8, 8], "dtype": "float32"}, {"name": "conv1d_841/bias", "shape": [8], "dtype": "float32"}, {"name": "conv1d_842/kernel", "shape": [1, 8, 32], "dtype": "float32"}, {"name": "conv1d_842/bias", "shape": [32], "dtype": "float32"}, {"name": "conv1d_843/kernel", "shape": [1, 32, 8], "dtype": "float32"}, {"name": "conv1d_843/bias", "shape": [8], "dtype": "float32"}, {"name": "conv1d_844/kernel", "shape": [3, 8, 8], "dtype": "float32"}, {"name": "conv1d_844/bias", "shape": [8], "dtype": "float32"}, {"name": "conv1d_845/kernel", "shape": [1, 8, 32], "dtype": "float32"}, {"name": "conv1d_845/bias", "shape": [32], "dtype": "float32"}, {"name": "conv1d_846/kernel", "shape": [1, 32, 64], "dtype": "float32"}, {"name": "conv1d_846/bias", "shape": [64], "dtype": "float32"}, {"name": "conv1d_847/kernel", "shape": [1, 32, 16], "dtype": "float32"}, {"name": "conv1d_847/bias", "shape": [16], "dtype": "float32"}, {"name": "conv1d_848/kernel", "shape": [3, 16, 16], "dtype": "float32"}, {"name": "conv1d_848/bias", "shape": [16], "dtype": "float32"}, {"name": "conv1d_849/kernel", "shape": [1, 16, 64], "dtype": "float32"}, {"name": "conv1d_849/bias", "shape": [64], "dtype": "float32"}, {"name": "conv1d_850/kernel", "shape": [1, 64, 16], "dtype": "float32"}, {"name": "conv1d_850/bias", "shape": [16], "dtype": "float32"}, {"name": "conv1d_851/kernel", "shape": [3, 16, 16], "dtype": "float32"}, {"name": "conv1d_851/bias", "shape": [16], "dtype": "float32"}, {"name": "conv1d_852/kernel", "shape": [1, 16, 64], "dtype": "float32"}, {"name": "conv1d_852/bias", "shape": [64], "dtype": "float32"}, {"name": "conv1d_853/kernel", "shape": [1, 64, 16], "dtype": "float32"}, {"name": "conv1d_853/bias", "shape": [16], "dtype": "float32"}, {"name": "conv1d_854/kernel", "shape": [3, 16, 16], "dtype": "float32"}, {"name": "conv1d_854/bias", "shape": [16], "dtype": "float32"}, {"name": "conv1d_855/kernel", "shape": [1, 16, 64], "dtype": "float32"}, {"name": "conv1d_855/bias", "shape": [64], "dtype": "float32"}, {"name": "conv1d_856/kernel", "shape": [1, 64, 128], "dtype": "float32"}, {"name": "conv1d_856/bias", "shape": [128], "dtype": "float32"}, {"name": "conv1d_857/kernel", "shape": [1, 64, 32], "dtype": "float32"}, {"name": "conv1d_857/bias", "shape": [32], "dtype": "float32"}, {"name": "conv1d_858/kernel", "shape": [3, 32, 32], "dtype": "float32"}, {"name": "conv1d_858/bias", "shape": [32], "dtype": "float32"}, {"name": "conv1d_859/kernel", "shape": [1, 32, 128], "dtype": "float32"}, {"name": "conv1d_859/bias", "shape": [128], "dtype": "float32"}, {"name": "conv1d_860/kernel", "shape": [1, 128, 32], "dtype": "float32"}, {"name": "conv1d_860/bias", "shape": [32], "dtype": "float32"}, {"name": "conv1d_861/kernel", "shape": [3, 32, 32], "dtype": "float32"}, {"name": "conv1d_861/bias", "shape": [32], "dtype": "float32"}, {"name": "conv1d_862/kernel", "shape": [1, 32, 128], "dtype": "float32"}, {"name": "conv1d_862/bias", "shape": [128], "dtype": "float32"}, {"name": "conv1d_863/kernel", "shape": [1, 128, 32], "dtype": "float32"}, {"name": "conv1d_863/bias", "shape": [32], "dtype": "float32"}, {"name": "conv1d_864/kernel", "shape": [3, 32, 32], "dtype": "float32"}, {"name": "conv1d_864/bias", "shape": [32], "dtype": "float32"}, {"name": "conv1d_865/kernel", "shape": [1, 32, 128], "dtype": "float32"}, {"name": "conv1d_865/bias", "shape": [128], "dtype": "float32"}, {"name": "conv1d_866/kernel", "shape": [1, 128, 32], "dtype": "float32"}, {"name": "conv1d_866/bias", "shape": [32], "dtype": "float32"}, {"name": "conv1d_867/kernel", "shape": [3, 32, 32], "dtype": "float32"}, {"name": "conv1d_867/bias", "shape": [32], "dtype": "float32"}, {"name": "conv1d_868/kernel", "shape": [1, 32, 128], "dtype": "float32"}, {"name": "conv1d_868/bias", "shape": [128], "dtype": "float32"}, {"name": "conv1d_869/kernel", "shape": [1, 128, 256], "dtype": "float32"}, {"name": "conv1d_869/bias", "shape": [256], "dtype": "float32"}, {"name": "conv1d_870/kernel", "shape": [1, 128, 64], "dtype": "float32"}, {"name": "conv1d_870/bias", "shape": [64], "dtype": "float32"}, {"name": "conv1d_871/kernel", "shape": [3, 64, 64], "dtype": "float32"}, {"name": "conv1d_871/bias", "shape": [64], "dtype": "float32"}, {"name": "conv1d_872/kernel", "shape": [1, 64, 256], "dtype": "float32"}, {"name": "conv1d_872/bias", "shape": [256], "dtype": "float32"}, {"name": "conv1d_873/kernel", "shape": [1, 256, 64], "dtype": "float32"}, {"name": "conv1d_873/bias", "shape": [64], "dtype": "float32"}, {"name": "conv1d_874/kernel", "shape": [3, 64, 64], "dtype": "float32"}, {"name": "conv1d_874/bias", "shape": [64], "dtype": "float32"}, {"name": "conv1d_875/kernel", "shape": [1, 64, 256], "dtype": "float32"}, {"name": "conv1d_875/bias", "shape": [256], "dtype": "float32"}, {"name": "conv1d_876/kernel", "shape": [1, 256, 64], "dtype": "float32"}, {"name": "conv1d_876/bias", "shape": [64], "dtype": "float32"}, {"name": "conv1d_877/kernel", "shape": [3, 64, 64], "dtype": "float32"}, {"name": "conv1d_877/bias", "shape": [64], "dtype": "float32"}, {"name": "conv1d_878/kernel", "shape": [1, 64, 256], "dtype": "float32"}, {"name": "conv1d_878/bias", "shape": [256], "dtype": "float32"}, {"name": "conv1d_879/kernel", "shape": [1, 256, 64], "dtype": "float32"}, {"name": "conv1d_879/bias", "shape": [64], "dtype": "float32"}, {"name": "conv1d_880/kernel", "shape": [3, 64, 64], "dtype": "float32"}, {"name": "conv1d_880/bias", "shape": [64], "dtype": "float32"}, {"name": "conv1d_881/kernel", "shape": [1, 64, 256], "dtype": "float32"}, {"name": "conv1d_881/bias", "shape": [256], "dtype": "float32"}, {"name": "conv1d_882/kernel", "shape": [1, 256, 64], "dtype": "float32"}, {"name": "conv1d_882/bias", "shape": [64], "dtype": "float32"}, {"name": "conv1d_883/kernel", "shape": [3, 64, 64], "dtype": "float32"}, {"name": "conv1d_883/bias", "shape": [64], "dtype": "float32"}, {"name": "conv1d_884/kernel", "shape": [1, 64, 256], "dtype": "float32"}, {"name": "conv1d_884/bias", "shape": [256], "dtype": "float32"}, {"name": "conv1d_885/kernel", "shape": [1, 256, 64], "dtype": "float32"}, {"name": "conv1d_885/bias", "shape": [64], "dtype": "float32"}, {"name": "conv1d_886/kernel", "shape": [3, 64, 64], "dtype": "float32"}, {"name": "conv1d_886/bias", "shape": [64], "dtype": "float32"}, {"name": "conv1d_887/kernel", "shape": [1, 64, 256], "dtype": "float32"}, {"name": "conv1d_887/bias", "shape": [256], "dtype": "float32"}, {"name": "conv1d_888/kernel", "shape": [1, 256, 512], "dtype": "float32"}, {"name": "conv1d_888/bias", "shape": [512], "dtype": "float32"}, {"name": "conv1d_889/kernel", "shape": [1, 256, 128], "dtype": "float32"}, {"name": "conv1d_889/bias", "shape": [128], "dtype": "float32"}, {"name": "conv1d_890/kernel", "shape": [3, 128, 128], "dtype": "float32"}, {"name": "conv1d_890/bias", "shape": [128], "dtype": "float32"}, {"name": "conv1d_891/kernel", "shape": [1, 128, 512], "dtype": "float32"}, {"name": "conv1d_891/bias", "shape": [512], "dtype": "float32"}, {"name": "conv1d_892/kernel", "shape": [1, 512, 128], "dtype": "float32"}, {"name": "conv1d_892/bias", "shape": [128], "dtype": "float32"}, {"name": "conv1d_893/kernel", "shape": [3, 128, 128], "dtype": "float32"}, {"name": "conv1d_893/bias", "shape": [128], "dtype": "float32"}, {"name": "conv1d_894/kernel", "shape": [1, 128, 512], "dtype": "float32"}, {"name": "conv1d_894/bias", "shape": [512], "dtype": "float32"}, {"name": "conv1d_895/kernel", "shape": [1, 512, 128], "dtype": "float32"}, {"name": "conv1d_895/bias", "shape": [128], "dtype": "float32"}, {"name": "conv1d_896/kernel", "shape": [3, 128, 128], "dtype": "float32"}, {"name": "conv1d_896/bias", "shape": [128], "dtype": "float32"}, {"name": "conv1d_897/kernel", "shape": [1, 128, 512], "dtype": "float32"}, {"name": "conv1d_897/bias", "shape": [512], "dtype": "float32"}, {"name": "conv1d_898/kernel", "shape": [1, 32, 64], "dtype": "float32"}, {"name": "conv1d_898/bias", "shape": [64], "dtype": "float32"}, {"name": "conv1d_899/kernel", "shape": [1, 32, 16], "dtype": "float32"}, {"name": "conv1d_899/bias", "shape": [16], "dtype": "float32"}, {"name": "conv1d_900/kernel", "shape": [3, 16, 16], "dtype": "float32"}, {"name": "conv1d_900/bias", "shape": [16], "dtype": "float32"}, {"name": "conv1d_901/kernel", "shape": [1, 16, 64], "dtype": "float32"}, {"name": "conv1d_901/bias", "shape": [64], "dtype": "float32"}, {"name": "conv1d_902/kernel", "shape": [1, 64, 16], "dtype": "float32"}, {"name": "conv1d_902/bias", "shape": [16], "dtype": "float32"}, {"name": "conv1d_903/kernel", "shape": [3, 16, 16], "dtype": "float32"}, {"name": "conv1d_903/bias", "shape": [16], "dtype": "float32"}, {"name": "conv1d_904/kernel", "shape": [1, 16, 64], "dtype": "float32"}, {"name": "conv1d_904/bias", "shape": [64], "dtype": "float32"}, {"name": "conv1d_905/kernel", "shape": [1, 64, 16], "dtype": "float32"}, {"name": "conv1d_905/bias", "shape": [16], "dtype": "float32"}, {"name": "conv1d_906/kernel", "shape": [3, 16, 16], "dtype": "float32"}, {"name": "conv1d_906/bias", "shape": [16], "dtype": "float32"}, {"name": "conv1d_907/kernel", "shape": [1, 16, 64], "dtype": "float32"}, {"name": "conv1d_907/bias", "shape": [64], "dtype": "float32"}, {"name": "conv1d_908/kernel", "shape": [1, 64, 128], "dtype": "float32"}, {"name": "conv1d_908/bias", "shape": [128], "dtype": "float32"}, {"name": "conv1d_909/kernel", "shape": [1, 64, 32], "dtype": "float32"}, {"name": "conv1d_909/bias", "shape": [32], "dtype": "float32"}, {"name": "conv1d_910/kernel", "shape": [3, 32, 32], "dtype": "float32"}, {"name": "conv1d_910/bias", "shape": [32], "dtype": "float32"}, {"name": "conv1d_911/kernel", "shape": [1, 32, 128], "dtype": "float32"}, {"name": "conv1d_911/bias", "shape": [128], "dtype": "float32"}, {"name": "conv1d_912/kernel", "shape": [1, 128, 32], "dtype": "float32"}, {"name": "conv1d_912/bias", "shape": [32], "dtype": "float32"}, {"name": "conv1d_913/kernel", "shape": [3, 32, 32], "dtype": "float32"}, {"name": "conv1d_913/bias", "shape": [32], "dtype": "float32"}, {"name": "conv1d_914/kernel", "shape": [1, 32, 128], "dtype": "float32"}, {"name": "conv1d_914/bias", "shape": [128], "dtype": "float32"}, {"name": "conv1d_915/kernel", "shape": [1, 128, 32], "dtype": "float32"}, {"name": "conv1d_915/bias", "shape": [32], "dtype": "float32"}, {"name": "conv1d_916/kernel", "shape": [3, 32, 32], "dtype": "float32"}, {"name": "conv1d_916/bias", "shape": [32], "dtype": "float32"}, {"name": "conv1d_917/kernel", "shape": [1, 32, 128], "dtype": "float32"}, {"name": "conv1d_917/bias", "shape": [128], "dtype": "float32"}, {"name": "conv1d_918/kernel", "shape": [1, 128, 32], "dtype": "float32"}, {"name": "conv1d_918/bias", "shape": [32], "dtype": "float32"}, {"name": "conv1d_919/kernel", "shape": [3, 32, 32], "dtype": "float32"}, {"name": "conv1d_919/bias", "shape": [32], "dtype": "float32"}, {"name": "conv1d_920/kernel", "shape": [1, 32, 128], "dtype": "float32"}, {"name": "conv1d_920/bias", "shape": [128], "dtype": "float32"}, {"name": "conv1d_921/kernel", "shape": [1, 128, 256], "dtype": "float32"}, {"name": "conv1d_921/bias", "shape": [256], "dtype": "float32"}, {"name": "conv1d_922/kernel", "shape": [1, 128, 64], "dtype": "float32"}, {"name": "conv1d_922/bias", "shape": [64], "dtype": "float32"}, {"name": "conv1d_923/kernel", "shape": [3, 64, 64], "dtype": "float32"}, {"name": "conv1d_923/bias", "shape": [64], "dtype": "float32"}, {"name": "conv1d_924/kernel", "shape": [1, 64, 256], "dtype": "float32"}, {"name": "conv1d_924/bias", "shape": [256], "dtype": "float32"}, {"name": "conv1d_925/kernel", "shape": [1, 256, 64], "dtype": "float32"}, {"name": "conv1d_925/bias", "shape": [64], "dtype": "float32"}, {"name": "conv1d_926/kernel", "shape": [3, 64, 64], "dtype": "float32"}, {"name": "conv1d_926/bias", "shape": [64], "dtype": "float32"}, {"name": "conv1d_927/kernel", "shape": [1, 64, 256], "dtype": "float32"}, {"name": "conv1d_927/bias", "shape": [256], "dtype": "float32"}, {"name": "conv1d_928/kernel", "shape": [1, 256, 64], "dtype": "float32"}, {"name": "conv1d_928/bias", "shape": [64], "dtype": "float32"}, {"name": "conv1d_929/kernel", "shape": [3, 64, 64], "dtype": "float32"}, {"name": "conv1d_929/bias", "shape": [64], "dtype": "float32"}, {"name": "conv1d_930/kernel", "shape": [1, 64, 256], "dtype": "float32"}, {"name": "conv1d_930/bias", "shape": [256], "dtype": "float32"}, {"name": "conv1d_931/kernel", "shape": [1, 256, 64], "dtype": "float32"}, {"name": "conv1d_931/bias", "shape": [64], "dtype": "float32"}, {"name": "conv1d_932/kernel", "shape": [3, 64, 64], "dtype": "float32"}, {"name": "conv1d_932/bias", "shape": [64], "dtype": "float32"}, {"name": "conv1d_933/kernel", "shape": [1, 64, 256], "dtype": "float32"}, {"name": "conv1d_933/bias", "shape": [256], "dtype": "float32"}, {"name": "conv1d_934/kernel", "shape": [1, 256, 64], "dtype": "float32"}, {"name": "conv1d_934/bias", "shape": [64], "dtype": "float32"}, {"name": "conv1d_935/kernel", "shape": [3, 64, 64], "dtype": "float32"}, {"name": "conv1d_935/bias", "shape": [64], "dtype": "float32"}, {"name": "conv1d_936/kernel", "shape": [1, 64, 256], "dtype": "float32"}, {"name": "conv1d_936/bias", "shape": [256], "dtype": "float32"}, {"name": "conv1d_937/kernel", "shape": [1, 256, 64], "dtype": "float32"}, {"name": "conv1d_937/bias", "shape": [64], "dtype": "float32"}, {"name": "conv1d_938/kernel", "shape": [3, 64, 64], "dtype": "float32"}, {"name": "conv1d_938/bias", "shape": [64], "dtype": "float32"}, {"name": "conv1d_939/kernel", "shape": [1, 64, 256], "dtype": "float32"}, {"name": "conv1d_939/bias", "shape": [256], "dtype": "float32"}, {"name": "conv1d_940/kernel", "shape": [1, 256, 512], "dtype": "float32"}, {"name": "conv1d_940/bias", "shape": [512], "dtype": "float32"}, {"name": "conv1d_941/kernel", "shape": [1, 256, 128], "dtype": "float32"}, {"name": "conv1d_941/bias", "shape": [128], "dtype": "float32"}, {"name": "conv1d_942/kernel", "shape": [3, 128, 128], "dtype": "float32"}, {"name": "conv1d_942/bias", "shape": [128], "dtype": "float32"}, {"name": "conv1d_943/kernel", "shape": [1, 128, 512], "dtype": "float32"}, {"name": "conv1d_943/bias", "shape": [512], "dtype": "float32"}, {"name": "conv1d_944/kernel", "shape": [1, 512, 128], "dtype": "float32"}, {"name": "conv1d_944/bias", "shape": [128], "dtype": "float32"}, {"name": "conv1d_945/kernel", "shape": [3, 128, 128], "dtype": "float32"}, {"name": "conv1d_945/bias", "shape": [128], "dtype": "float32"}, {"name": "conv1d_946/kernel", "shape": [1, 128, 512], "dtype": "float32"}, {"name": "conv1d_946/bias", "shape": [512], "dtype": "float32"}, {"name": "conv1d_947/kernel", "shape": [1, 512, 128], "dtype": "float32"}, {"name": "conv1d_947/bias", "shape": [128], "dtype": "float32"}, {"name": "conv1d_948/kernel", "shape": [3, 128, 128], "dtype": "float32"}, {"name": "conv1d_948/bias", "shape": [128], "dtype": "float32"}, {"name": "conv1d_949/kernel", "shape": [1, 128, 512], "dtype": "float32"}, {"name": "conv1d_949/bias", "shape": [512], "dtype": "float32"}, {"name": "dense_16/kernel", "shape": [1024, 256], "dtype": "float32"}, {"name": "dense_16/bias", "shape": [256], "dtype": "float32"}, {"name": "dense_17/kernel", "shape": [256, 256], "dtype": "float32"}, {"name": "dense_17/bias", "shape": [256], "dtype": "float32"}, {"name": "dense_18/kernel", "shape": [256, 256], "dtype": "float32"}, {"name": "dense_18/bias", "shape": [256], "dtype": "float32"}, {"name": "dense_19/kernel", "shape": [256, 3], "dtype": "float32"}, {"name": "dense_19/bias", "shape": [3], "dtype": "float32"}]}]}